specific_test_3B/task_3b_finetuned_fsrcnn_model.pth (torch, 59154 bytes, 15 tensors)

feature_extraction.0.weight f4 [56, 1, 5, 5]
-0.43272743 -0.6441292 -0.41665384 -0.82662016 -0.77741814 -0.697694 0.10438257 0.68404764
-0.121457346 -0.6112617 -0.09716422 1.8324677 2.2226021 1.2335551 0.0405738 -0.067796096
1.280977 1.3954815 0.7732048 0.36508396 -0.44844797 -0.3580813 -0.08696917 -0.1364488
-0.18546808 0.81530213 0.7994948 1.0874765 0.75763434 0.8199616 0.5909415 0.8946589
0.79519475 1.0165275 1.0050656 0.798435 0.9624501 0.92336696 1.0010722 0.8792127
0.87943923 0.72621614 0.79519415 0.8705159 0.88057065 0.7632407 0.6163406 0.8602042
0.7147718 0.9155467 0.3981941 0.109849624 0.07514445 0.24959159 0.09961882 0.0701235
0.32105127 0.42689857 0.15683891 0.14701372 0.43851796 0.13040851 0.21239565 0.3968895
0.086519204 0.3701182 0.38288566 0.25745258 0.44078404 0.34289253 0.2419659 0.37346795
0.31289682 0.38192067 0.19030312 0.15684219 0.15025175 -0.012319966 0.31661186 -0.0020197008
-0.08940553 0.0369964 -0.0064374455 0.270407 0.0189636 -0.054616626 0.11058743 -0.033407513
-0.050125256 0.048310567 0.00438489 -0.042976163 0.009172369 -0.06255808 0.3240623 0.08186416
0.15527602 0.11587099 0.052004106 0.19251783 0.17792678 0.26315516 0.12864059 0.15764567
0.17454334 -0.06776582 -0.03664756 0.20465404 0.35215437 0.3116463 0.06381111 0.10351807
0.22841172 0.22689223 0.22987656 -0.029054064 0.2924644 0.31270063 0.31158784 0.25039586
-0.0051094377 0.21261428 0.22557385 0.24656717 0.24478933 0.22779378 0.21875043 0.4023283
0.37762696 -0.028388109 0.50599784 0.67693937 0.698686 0.40568992 0.25205162 0.8668257
0.757372 0.9151119 0.5170694 0.26582906 0.91419077 0.9327501 0.7837085 0.7036975
0.42608812 0.83980566 0.6565433 0.51512605 0.70926225 0.571869 -0.009173018 0.09833153
0.01281846 -0.13279863 -0.077048525 0.07592882 -0.18399987 0.053908195 0.0831969 0.021336373
-0.18498947 -0.051135823 -0.09436964 -0.25068298 -0.049722984 -0.061059084 0.07623898 -0.010735065
-0.0391532 -0.15048426 -0.13693225 -0.13480815 -0.18487729 -0.11544845 0.019774342 0.9938729
1.0691465 1.3886575 0.9931261 1.0666281 1.1969976 1.5236175 1.5652912 1.4492433
1.2842362 1.4448087 1.5523711 1.4530832 1.3020777 1.4505813 1.478343 1.5574853
1.641339 1.2141118 1.2494923 1.3170528 1.2299379 1.2086124 1.4402364 1.223728
-0.70459956 -0.6004414 -0.80091614 -0.8471172 -0.91575825 -0.5910858 -0.6224963 -0.98168457
-1.0030069 -0.68770796 -0.6976019 -0.8294394 -1.001991 -0.84213173 -0.81153613 -0.36098155
-0.72795177 -0.7973097 -0.79064065 -0.7588106 -0.34882346 -0.2708408 -0.46532002 -0.4841163
-0.7891714 0.6443814 1.0306448 1.0753176 0.729707 0.8247057 1.0224043 1.0700487
1.0915987 1.1242111 1.1215963 1.0504309 1.2073205 1.432867 1.2893426 0.92035705
0.8473502 1.2686 1.3468009 1.2612203 1.1153286 0.91234833 1.0491579 1.177334
1.1803321 0.9942488 0.0446099 0.043128885 0.016774384 0.061681032 -0.018755125 0.123208106
00000000: 738e ddbe a7e5 24bf a753 d5be 619d 53bf
00000010: e004 47bf 139c 32bf 87c6 d53d bf1d 2f3f
00000020: a1be f8bd a67b 1cbf 09fe c6bd 4d8e ea3f
00000030: 1d3f 0e40 22e5 9d3f b730 263d aed8 8abd
00000040: 0ef7 a33f 239f b23f c0f0 453f 49ec ba3e
00000050: f99a e5be 6f56 b7be e41c b2bd 3cb9 0bbe
00000060: 58eb 3dbe a4b7 503f b1ab 4c3f 6e32 8b3f
00000070: 53f4 413f 01e9 513f f147 173f 5e08 653f
00000080: e291 4b3f 931d 823f fda5 803f 3c66 4c3f
00000090: 2163 763f c761 6c3f 2223 803f 1514 613f
000000a0: ee22 613f 4de9 393f d891 4b3f 21da 5e3f
000000b0: 146d 613f be63 433f 7fc8 1d3f 5836 5c3f
000000c0: 49fb 363f 4561 6a3f 19e0 cb3e d7f8 e03d
000000d0: 55e5 993d f094 7f3e f404 cc3d e99c 8f3d
000000e0: d560 a43e 7392 da3e 619a 203e c48a 163e
000000f0: 6d85 e03e cf89 053e 3f7e 593e 1a35 cb3e
00000100: fb30 b13d 2280 bd3e 9709 c43e d3d0 833e
00000110: 72ae e13e 9c8f af3e e9c5 773e 3137 bf3e
00000120: 0334 a03e 1b8b c33e d2de 423e 3d9b 203e
00000130: 98db 193e afd9 49bc f31a a23e f55c 04bb
00000140: 3f1a b7bd 8a89 173d 35f1 d2bb c972 8a3e
00000150: 8d59 9b3c afb5 5fbd aa7b e23d 51d6 08bd
00000160: 2450 4dbd 4de1 453d 20af 8f3b c607 30bd
00000170: b447 163c 731e 80bd 7eeb a53e 66a8 a73d
00000180: ad00 1f3e c54d ed3d 4202 553d 6523 453e
00000190: 7032 363e 46bc 863e 5cba 033e de6d 213e
000001a0: 7dbb 323e cec8 8abd c01b 16bd d490 513e
000001b0: 944d b43e 1b90 9f3e 66af 823d 4801 d43d
000001c0: c3e4 693e 7056 683e c364 6b3e ca02 eebc
000001d0: e5bd 953e 4c1a a03e 7188 9f3e e333 803e
000001e0: 126d a7bb 8fb7 593e d5fc 663e 1b7c 7c3e
000001f0: 0eaa 7a3e c642 693e 1d00 603e fafd cd3e
00000200: 5258 c13e 2e8e e8bc 1389 013f e64b 2d3f
00000210: 16dd 323f 97b6 cf3e e90c 813e 4ae8 5d3f
00000220: 22e3 413f c644 6a3f a95e 043f bf1a 883e
00000230: 6808 6a3f b6c8 6e3f 1fa1 483f 8525 343f
00000240: 3928 da3e 81fd 563f 3913 283f 4ddf 033f
00000250: 3692 353f 0266 123f 6d4a 16bc 0b62 c93d
00000260: 8504 523c 5dfc 07be 9ecb 9dbd 9280 9b3d
00000270: 766a 3cbe d7ce 5c3d 2363 aa3d 9ec9 ae3c
00000280: e16d 3dbe cc73 51bd df44 c1bd 8559 80be
00000290: 54aa 4bbd 1719 7abd 2f23 9c3d 20e2 2fbc
000002a0: 1b5f 20bd 8c18 1abe f837 0cbe 260b 0abe
000002b0: 7950 3dbe 3d70 ecbd cdfd a13c 746e 7e3f
000002c0: cbd9 883f 87bf b13f 833d 7e3f 4587 883f
000002d0: 3837 993f e605 c33f 765b c83f ce80 b93f
000002e0: da61 a43f 7eef b83f 19b4 c63f a1fe b93f
000002f0: 7baa a63f a6ac b93f 583a bd3f ae5b c73f
00000300: 6517 d23f 0468 9b3f 5def 9f3f 3095 a83f
00000310: 9b6e 9d3f d0b3 9a3f ab59 b83f 1ea3 9c3f
00000320: a360 34bf 87b6 19bf d708 4dbf acdc 58bf
00000330: 226f 6abf 6651 17bf eb5b 1fbf ae4f 7bbf
00000340: 8862 80bf a10d 30bf 0a96 32bf 2456 54bf
00000350: 3e41 80bf f295 57bf d5c0 4fbf 93d2 b8be
00000360: 0c5b 3abf 7d1c 4cbf 6d67 4abf 6941 42bf
00000370: fd98 b2be a5ab 8abe 6d3e eebe 17de f7be
00000380: 2307 4abf 2ef6 243f 2bec 833f 02a4 893f
00000390: 14ce 3a3f ea1f 533f 25de 823f 5bf7 883f
000003a0: 82b9 8b3f 26e6 8f3f 7890 8f3f 8574 863f
000003b0: 7a89 9a3f 3068 b73f 2e09 a53f 859c 6b3f
000003c0: f1eb 583f 7c61 a23f f963 ac3f ab6f a13f
000003d0: 16c3 8e3f a98f 693f ce4a 863f e1b2 963f
000003e0: 1f15 973f 1787 7e3f dfb8 363d eaa7 303d
000003f0: 6f6a 893c 40a5 7c3d 59a4 99bc 8854 fc3d

feature_extraction.0.bias f4 [56]
0.009406231 0.08267302 -0.050486617 -0.004492777 -0.0297792 0.0020342902 -0.02126586 0.012150425
0.041604646 0.018023131 -0.13030288 -0.0849282 -0.1239079 -0.12520799 0.00934248 -0.014392463
-0.06375883 -0.02831357 0.004635437 0.05797409 -0.084536105 -0.040398296 -0.11664496 -0.019529406
0.016991926 -0.027188443 -0.0058465716 -0.07405323 -0.015140112 -0.0638664 0.042596787 0.15015103
-0.032296624 -0.025382904 -0.009682466 0.007897548 0.04600216 0.081758514 -0.034200545 -0.1139669
-0.14803506 0.08330494 -0.005620921 0.05868297 0.053101555 0.14838658 -0.0067940266 0.11339389
-0.024128318 -0.13137344 0.00873897 -0.020633377 -0.11813362 -0.024615413 -0.02291138 -0.025079878
00000000: 981c 1a3c 7950 a93d 0ecb 4ebd 2538 93bb
00000010: 82f3 f3bc ba51 053b be35 aebc 9412 473c
00000020: a269 2a3d 3fa5 933c 1e6e 05be d6ee adbd
00000030: 6dc3 fdbd 8636 00be 3411 193c 5dce 6bbc
00000040: fd93 82bd dcf1 e7bc dde4 973b 3d76 6d3d
00000050: 4421 adbd af78 25bd 8ee3 eebd 22fc 9fbc
00000060: a732 8b3c 4cba debc 9994 bfbb 38a9 97bd
00000070: 3b0e 78bc 63cc 82bd f879 2e3d 31c1 193e
00000080: 7749 04bd cfef cfbc 35a3 1ebc b864 013c
00000090: c36c 3c3d 0271 a73d df15 0cbd 7a67 e9bd
000000a0: 8196 17be c89b aa3d b42f b8bb 8e5d 703d
000000b0: 0481 593d a7f2 173e 6da0 debb 0e3b e83d
000000c0: c0a8 c5bc c286 06be e62d 0f3c 5407 a9bc
000000d0: 0af0 f1bd 43a6 c9bc a5b0 bbbc 5174 cdbc

shrinking.0.weight f4 [12, 56, 1, 1]
-0.21798985 -0.032736573 -0.09203141 -0.016474258 -0.01703432 -0.20009252 -0.016153814 -0.0044017034
0.08657452 0.034575664 0.0757738 0.07381389 -0.15259612 -0.03540753 0.12586297 0.037766278
-0.12046666 -0.05031784 -0.03511585 -0.027614232 -0.13744518 0.063638724 -0.003463178 0.065976806
0.1477469 -0.114444695 0.17501785 0.08559814 -0.11234459 -0.038470026 0.196394 0.040588353
0.09590303 0.04358418 -0.25580868 0.24325874 -0.015800912 -0.086275004 -0.13479055 -0.004819126
-0.04155071 -0.07212065 0.08296894 -0.051314663 0.122327425 0.07219937 -0.008863944 0.109022275
-0.019293658 -0.032542102 -0.2692456 0.12145478 -0.06318412 -0.121196836 -0.15009016 0.08153277
0.55891204 0.021587553 -0.079627976 0.013162085 0.03493048 0.047263876 -0.0855157 0.2792358
0.07966157 0.19800979 -0.15318856 -0.0115566095 0.07194987 -0.04402049 -0.15028648 0.049321413
-0.06624833 -0.05117612 0.18781692 0.123490654 -0.014706206 0.011556161 -0.15231018 -0.17320092
0.1427295 0.080515824 -0.02246226 -0.13563542 -0.09685465 -0.12091304 -0.013954102 0.16906147
-0.052433673 -0.038930066 0.025318077 -0.19168034 -0.03048917 -0.05247603 0.021639768 0.06774773
0.059968874 0.112555735 0.04015801 0.041581843 -0.079136305 -0.06694579 -0.10124276 0.07128646
-0.015072961 -0.107679404 0.5272847 -0.10000858 -0.103869185 0.1118664 -0.022771034 0.072481535
0.68051004 -0.13504635 -0.039326396 -0.0055644466 0.009723039 0.061687976 0.118858464 0.021344747
0.04308949 0.064656965 0.0961661 -0.050006717 -0.09473155 0.033565987 -0.11680231 -0.057248816
0.053350575 -0.014048638 0.17018525 -0.015365528 -0.062090218 0.044158112 0.08454908 0.026928095
0.09404604 -0.008358112 -0.02924249 0.114096776 0.13850443 -0.02838113 -0.031107966 -0.048897184
-0.095870934 0.060839504 0.18155128 -0.18996026 -0.08482047 -0.043627903 -0.016573353 -0.11100988
0.010601805 0.058062196 0.07762156 0.016094849 -0.0164109 -0.067728564 0.12669803 0.07012497
0.0972572 -0.032891538 0.63954645 -0.11575454 0.091533564 -0.11119844 0.049923595 0.037336126
1.1427945 0.11968799 -0.07556803 -0.07403624 0.081109546 -0.028594451 0.040084828 -0.03783602
-0.04429282 0.06454973 -0.003379376 0.08504737 0.014142273 0.06748373 -0.04148564 0.048554815
-0.16144733 0.02533718 -0.029684318 0.15273693 -0.16870211 0.097731635 0.07199856 -0.07686533
0.07133104 0.005146154 0.07398302 -0.16216376 0.07941827 0.053845547 0.02096671 -0.12937489
-0.019376554 -0.05784717 0.5181029 -0.22902104 -0.08770855 0.045158852 -0.141374 -0.026360052
-0.16517824 -0.040426984 -0.07541318 0.073012866 -0.10239526 0.011584379 0.14887688 0.117842965
0.018616159 -0.0050585745 0.8621779 0.130405 -0.060343936 0.077873275 0.04363196 0.030159082
-0.20785166 -0.06634832 -0.057418693 0.059888247 0.051518388 -0.16885136 -0.0490993 -0.31920192
-0.10368501 -0.25726345 -0.04782722 0.10441852 -0.028545234 0.11327878 0.04232224 -0.13230845
0.13887498 0.04103564 -0.25223035 0.102679044 0.054518845 -0.08376032 -0.008910813 -0.0031094113
0.013203713 0.05107345 0.06306756 0.002684708 -0.07732208 -0.031923745 0.01907604 -0.16427056
00000000: bb38 5fbe c916 06bd f77a bcbd 06f5 86bc
00000010: 8f8b 8bbc 0ee5 4cbe 0155 84bc 2a3c 90bb
00000020: fb4d b13d 369f 0d3d 4b2f 9b3d bd2b 973d
00000030: 2842 1cbe 7c07 11bd 39e2 003e d0b0 1a3d
00000040: 39b7 f6bd 141a 4ebd a3d5 0fbd 3e37 e2bc
00000050: 6ebe 0cbe 0555 823d 7cf6 62bb d91e 873d
00000060: f74a 173e fb61 eabd e137 333e 144e af3d
00000070: ec14 e6bd bf92 1dbd 821b 493e f93f 263d
00000080: cf68 c43d 5385 323d 5bf9 82be d218 793e
00000090: ea70 81bc f3b0 b0bd 8906 0abe c2e9 9dbb
000000a0: 1431 2abd feb3 93bd 9feb a93d 532f 52bd
000000b0: cd86 fa3d 43dd 933d 133a 11bc 1247 df3d
000000c0: bc0d 9ebc de4a 05bd 8fda 89be 49bd f83d
000000d0: ad66 81bd 0c36 f8bd 3cb1 19be a7fa a63d
000000e0: dc14 0f3f 61d8 b03c fe13 a3bd c9a5 573c
000000f0: 4313 0f3d c497 413d db22 afbd fff7 8e3e
00000100: 9b25 a33d 14c3 4a3e 76dd 1cbe ef57 3dbc
00000110: 745a 933d d44e 34bd b3e4 19be 4005 4a3d
00000120: 34ad 87bd 0d9e 51bd 1453 403e abe8 fc3d
00000130: 4cf2 70bc 0d56 3d3c 33f7 1bbe 955b 31be
00000140: af27 123e 7be5 a43d c602 b8bc 03e4 0abe
00000150: bb5b c6bd 42a1 f7bd bf9f 64bc 731e 2d3e
00000160: b1c4 56bd 2275 1fbd db67 cf3c da47 44be
00000170: 6dc4 f9bc 1bf1 56bd e245 b13c 52bf 8a3d
00000180: eca1 753d 9f83 e63d ba7c 243d b951 2a3d
00000190: 3712 a2bd e01a 89bd 5d58 cfbd a3fe 913d
000001a0: 95f4 76bc 0587 dcbd 21fc 063f 4cd1 ccbd
000001b0: 5eb9 d4bd 361a e53d 528a babc 3371 943d
000001c0: e835 2e3f 9749 0abe b714 21bd f655 b6bb
000001d0: 624d 1f3c 88ac 7c3d 116c f33d 2edb ae3c
000001e0: 9b7e 303d df6a 843d bbf2 c43d d8d3 4cbd
000001f0: 9d02 c2bd 7d7c 093d 0d36 efbd bc7d 6abd
00000200: 2286 5a3d 422c 66bc 0b45 2e3e b2bf 7bbc
00000210: 5052 7ebd 23df 343d 1128 ad3d 4f98 dc3c
00000220: 369b c03d 76f0 08bc f28d efbc 92ab e93d
00000230: 1bd4 0d3e 8b7f e8bc 22d6 febc 6a48 48bd
00000240: fb57 c4bd d832 793d 94e8 393e f184 42be
00000250: 5bb6 adbd 2cb3 32bd d7c4 87bc 2659 e3bd
00000260: 31b3 2d3c a0d2 6d3d 0df8 9e3d 58d9 833c
00000270: 2770 86bc 46b5 8abd 21bd 013e ae9d 8f3d
00000280: c82e c73d 47b9 06bd 51b9 233f b710 edbd
00000290: f375 bb3d 02bc e3bd af7c 4c3d c4ed 183d
000002a0: 1747 923f fa1e f53d 69c3 9abd 50a0 97bd
000002b0: c31c a63d e93e eabc fd2f 243d f1f9 1abd
000002c0: 636c 35bd a632 843d 8578 5dbb 512d ae3d
000002d0: feb4 673c e934 8a3d d9ec 29bd 6ae1 463d
000002e0: 7352 25be eb8f cf3c 872c f3bc 1267 1c3e
000002f0: 3fc0 2cbe 8627 c83d fb73 933d 926b 9dbd
00000300: 0216 923d 12a1 a83b 6984 973d 420e 26be
00000310: 0ca6 a23d 268d 5c3d 61c2 ab3c da7a 04be
00000320: 94bb 9ebc 27f1 6cbd 64a2 043f 7e84 6abe
00000330: 8aa0 b3bd 7df8 383d 59c4 10be 09f1 d7bc
00000340: 7c24 29be c496 25bd 3a72 9abd c587 953d
00000350: 9bb4 d1bd 68cc 3d3c 2e73 183e a757 f13d
00000360: ea80 983c 66c2 a5bb b1b7 5c3f e388 053e
00000370: 342b 77bd 067c 9f3d 6db7 323d 2e10 f73c
00000380: 11d7 54be a1e1 87bd dd2f 6bbd 614d 753d
00000390: f204 533d 5fe7 2cbe 591c 49bd 6f6e a3be
000003a0: ce58 d4bd 09b8 83be 7ae6 43bd 61d9 d53d
000003b0: b2d7 e9bc b4fe e73d 165a 2d3d de7b 07be
000003c0: 3e35 0e3e fd14 283d 5624 81be 6449 d23d
000003d0: 274f 5f3d 888a abbd a9fe 11bc 44c7 4bbb
000003e0: 6354 583c 6532 513d 9129 813d edf1 2f3b
000003f0: 0a5b 9ebd 79c2 02bd 5b45 9c3c 8b36 28be

shrinking.0.bias f4 [12]
-0.028482033 -0.08291486 -0.048466094 -0.08484781 0.06298833 -0.0716453 -0.06416436 0.01215619
0.07173388 0.0011503147 0.025617003 -0.032857075
00000000: 2753 e9bc 44cf a9bd 6284 46bd b0c4 adbd
00000010: 0700 813d c5ba 92bd 9b68 83bd c22a 473c
00000020: 36e9 923d 28c6 963a c0da d13c 2495 06bd

mapping.0.0.weight f4 [12, 12, 3, 3]
0.057074655 -0.03025445 -0.028444447 0.010592631 -0.0350274 -0.06586021 -0.034316316 0.12566634
0.032451633 0.09024809 0.05942299 -0.023415718 0.0038271314 -0.0049787103 0.15798257 -0.28413284
-0.19259734 0.08572592 0.078377806 0.10763281 0.12359994 -0.09384256 0.06847821 0.12438316
-0.30199194 -0.15719101 -0.023904085 0.05459011 0.06496077 -0.014662599 0.030888412 0.02305114
0.031229332 -0.026365146 -0.052804817 -0.11680339 0.06559713 -0.07973828 0.05576121 0.07485228
0.04618134 -0.06381265 -0.023269253 0.039554037 0.07619731 -0.02996336 0.07454884 -0.08166143
-0.015406696 0.088568866 0.01866388 -0.015706979 -0.029472264 -0.0598635 -0.03980444 0.16033934
0.07717149 -0.103823125 0.06151261 0.12689435 -0.09920389 -0.10596021 -0.08483106 -0.0798301
-0.07445445 -0.14055009 -0.08659459 -0.22369707 -0.13639945 -0.08659025 -0.19165996 -0.116249524
0.060189385 -0.0048274826 0.069478035 -0.045101374 0.004896943 0.06627283 -0.041133903 0.067661874
-0.03037722 0.013998216 -0.0053087077 -0.13168278 0.041215576 0.05430037 -0.028240517 -0.10073075
-0.044394292 0.02942759 0.20277661 0.13311645 0.11046366 0.15477708 0.28990924 0.21588452
0.12536205 0.09334792 0.10529392 -0.059292477 -0.0454323 0.07757871 -0.07959501 -0.031168979
0.05835611 0.045236226 0.008620389 0.0906727 -0.066328295 -0.07755323 0.025072327 0.09865658
0.07665218 -0.016181279 0.07051277 0.11544737 -0.02040129 -0.00036751255 -0.06767349 0.09064523
-0.13332585 -0.039983463 -0.11075391 -0.037333254 -0.23624116 -0.107072815 0.1081949 0.20656493
0.21607576 0.006265165 -0.110635035 -0.016636413 -0.114805706 -0.11099209 -0.061476253 0.009387746
0.024976261 0.05322086 -0.03265853 0.045218907 0.026093807 0.02278371 0.081749246 0.19507082
0.0029230602 0.013862026 -0.051457696 -0.01780437 -0.032182604 0.012711432 -0.039268415 -0.04366939
0.0574175 -0.058607187 -0.006223779 -0.032989684 0.06438856 0.12519537 0.014500336 0.046726577
0.120928265 0.07138871 -0.041259002 -0.02063467 -0.038021144 -0.18761164 -0.18051197 -0.22507934
0.09794043 0.09630754 0.021530105 -0.16828969 -0.37959844 -0.26194832 -0.16104987 -0.21361014
-0.2451388 -0.1788732 -0.15990771 -0.21619542 -0.041348115 0.038826242 0.14024003 -0.062442355
-0.15355538 -0.087590754 -0.23750937 -0.16149679 -0.34645012 -0.13101695 -0.11849041 -0.1576811
-0.20406812 -0.19136208 -0.12789649 -0.020878382 -0.16109651 -0.22424237 0.042287894 0.029435841
0.16930853 0.11382353 -0.023347115 -0.03340939 -0.044512745 -0.101253346 -0.1594516 -0.08712311
-0.044430546 0.03658447 0.0757492 -0.0016740143 -0.009508787 -0.014236066 0.0007587217 0.04833509
-0.051563907 0.054587156 0.071244225 0.077293806 -0.011553215 0.07133262 0.045119207 0.082486086
0.11681326 0.089580156 -0.054686073 0.03486478 0.06058413 0.06869522 0.0712076 -0.04846589
-0.0105582625 0.11156692 0.1461379 0.046156712 -0.099828765 0.12623316 0.09495255 -0.08808485
0.1476489 -0.004043143 0.019457312 -0.020176638 -0.034297813 -0.016939357 -0.028133897 -0.04199609
0.04074447 -0.038706265 0.06584212 -0.006109185 0.04970791 0.056188647 -0.047521174 -0.017927261
00000000: 1dc7 693d 2ed8 f7bc 5404 e9bc b78c 2d3c
00000010: e478 0fbd b8e1 86bd 448f 0cbd adae 003e
00000020: 01ec 043d fed3 b83d 8565 733d 52d2 bfbc
00000030: 9cd0 7a3b 7324 a3bb 2fc6 213e dc79 91be
00000040: 3d38 45be 1291 af3d 8b84 a03d 976e dc3d
00000050: f721 fd3d 8730 c0bd 4e3e 8c3d 99bc fe3d
00000060: b09e 9abe aef6 20be 80d2 c3bc e199 5f3d
00000070: 270a 853d 663b 70bc b209 fd3c bfd5 bc3c
00000080: a8d4 ff3c b8fb d7bc dd49 58bd 9e36 efbd
00000090: ca57 863d d34d a3bd de65 643d 274c 993d
000000a0: a528 3d3d 35b0 82bd 299f bebc 6a03 223d
000000b0: 560d 9c3d b875 f5bc 10ad 983d 1c3e a7bd
000000c0: 5e6c 7cbc 9863 b53d fee4 983c ecab 80bc
000000d0: d16f f1bc 6e33 75bd fb09 23bd ff2f 243e
000000e0: 160c 9e3d 38a1 d4bd a6f4 7b3d 98f0 013e
000000f0: 692b cbbd ab01 d9bd e8bb adbd f77d a3bd
00000100: 937b 98bd 5dec 0fbe 8158 b1bd d810 65be
00000110: 4cac 0bbe 3b56 b1bd 8242 44be 3b14 eebd
00000120: 2589 763d dc2f 9ebb 804a 8e3d 38bc 38bd
00000130: 8976 a03b 0dba 873d 067c 28bd 4f92 8a3d
00000140: a6d9 f8bc c658 653c abf4 adbb dad7 06be
00000150: aad1 283d 116a 5e3d a858 e7bc ec4b cebd
00000160: cad6 35bd 2112 f13c aca4 4f3e ae4f 083e
00000170: c53a e23d e27d 1e3e fc6e 943e d510 5d3e
00000180: e95e 003e 322d bf3d 57a4 d73d abdc 72bd
00000190: 3817 3abd 96e1 9e3d b502 a3bd 1656 ffbc
000001a0: d106 6f3d 9f49 393d 883c 0d3c 9cb2 b93d
000001b0: 21d7 87bd 3ad4 9ebd 7b64 cd3c 760c ca3d
000001c0: d1fb 9c3d 9a8e 84bc 0069 903d ac6f ec3d
000001d0: 9b20 a7bc b3ae c0b9 6698 8abd 35a4 b93d
000001e0: 9286 08be b3c5 23bd f2d2 e2bd c1ea 18bd
000001f0: 34e9 71be fe48 dbbd 4a95 dd3d c285 533e
00000200: f742 5d3e 034c cd3b 9f94 e2bd 1649 88bc
00000210: 411f ebbd d24f e3bd 86ce 7bbd 10cf 193c
00000220: 049b cc3c 1efe 593d f3c4 05bd 7637 393d
00000230: aec2 d53c e7a4 ba3c 266c a73d a5c0 473e
00000240: d090 3f3b 8d1d 633c 4ec5 52bd 78da 91bc
00000250: e8d1 03bd 9c43 503c ebd7 20bd adde 32bd
00000260: 9d2e 6b3d 170e 70bd d8f0 cbbb 3120 07bd
00000270: 26de 833d 3733 003e d192 6d3c 5e64 3f3d
00000280: 3da9 f73d 3e34 923d 33ff 28bd 0a0a a9bc
00000290: 0fbc 1bbd 441d 40be 21d8 38be 337b 66be
000002a0: fe94 c83d e33c c53d e75f b03c 2254 2cbe
000002b0: ba5a c2be 171e 86be 42ea 24be 9ebc 5abe
000002c0: aa05 7bbe 892a 37be d9be 23be 5562 5dbe
000002d0: a45c 29bd 4408 1f3d 159b 0f3e 8ec3 7fbd
000002e0: 9f3d 1dbe c862 b3bd a835 73be 6a5f 25be
000002f0: e961 b1be 4f29 06be 1aab f2bd 2777 21be
00000300: 3cf7 50be 6cf4 43be 4cf7 02be 2409 abbc
00000310: 7cf6 24be cb9f 65be 1236 2d3d 6f23 f13c
00000320: 375f 2d3e 501c e93d 7342 bfbc 49d8 08bd
00000330: ff52 36bd ea5d cfbd 4847 23be 9a6d b2bd
00000340: cefc 35bd 99d9 153d 6622 9b3d 996a dbba
00000350: beca 1bbc 633e 69bc f4e4 463a 04fb 453d
00000360: ad34 53bd c896 5f3d 7ee8 913d 374c 9e3d
00000370: b249 3dbc d616 923d ebce 383d 77ee a83d
00000380: ca3b ef3d cd75 b73d 81fe 5fbd 5fce 0e3d
00000390: 1127 783d 14b0 8c3d 4ad5 913d 2b84 46bd
000003a0: 90fc 2cbc 337d e43d 2ca5 153e d20e 3d3d
000003b0: 0673 ccbd 4443 013e 7c76 c23d d465 b4bd
000003c0: 4631 173e 577c 84bb f164 9f3c 7a49 a5bc
000003d0: dd7b 0cbd 68c4 8abc 0f79 e6bc 1804 2cbd
000003e0: ace3 263d 768a 1ebd 3cd8 863d 8f2f c8bb
000003f0: 859a 4b3d 1126 663d 90a5 42bd 31dc 92bc

mapping.0.0.bias f4 [12]
-0.025473505 -0.023749614 0.02192529 -0.034339447 0.013031014 -0.024858061 -0.04984083 -0.07076962
-0.040416308 0.03835759 0.007997914 0.0013343765
00000000: d0ad d0bc 8d8e c2bc aa9c b33c 85a7 0cbd
00000010: 0980 553c 22a3 cbbc e625 4cbd aaef 90bd
00000020: 928b 25bd d91c 1d3d af09 033c 3fe6 ae3a

mapping.1.0.weight f4 [12, 12, 3, 3]
-0.096895896 0.020368285 -0.123912975 -0.06921605 0.059616514 -0.008379859 0.052451633 -0.037413314
-0.020115385 -0.083364986 -0.09259339 0.065938674 0.050802328 0.08462227 0.12804629 0.044941295
0.022255298 -0.01549984 0.08904706 0.085240394 0.12992603 -0.003275211 -0.14309175 0.1485268
-0.041998673 -0.047865942 -0.005902046 -0.07209091 -0.016994635 -0.13484004 0.05038662 -0.01691915
0.01750637 -0.02100864 0.067842275 0.14841925 -0.083334655 -0.20247516 -0.1899859 -0.0048738173
0.010403337 -0.15288733 -0.057533354 0.05480096 0.12972441 0.04254701 -0.14490579 -0.06804804
0.039916042 -0.13365501 0.010151473 -0.03541223 -0.10479352 -0.062360838 -0.07407656 -0.03587197
0.079232596 -0.06421311 0.075245924 -0.03554845 0.0013402302 0.002058422 -0.1810765 0.11783923
-0.048808847 -0.035676017 0.11028447 -0.06521162 -0.009795223 -0.056738935 -0.20968217 -0.06698823
-0.017766757 -0.1034383 0.055222347 0.036300927 -0.06298756 -0.05458967 -0.10111452 -0.09498911
-0.05162699 0.066807926 -0.07616276 0.17110938 -0.07893705 -0.13016312 0.01854102 -0.015223481
-0.019216953 0.15515445 -0.080376446 -0.05520891 -0.012391717 0.12462511 0.10202765 0.0050007077
0.15947494 0.01838943 0.083490625 -0.17370297 -0.16932923 -0.043394454 0.022638492 -0.1570113
-0.026509413 -0.02867097 -0.03372324 0.059758477 -0.04588444 0.002398945 0.035903554 -0.076955736
-0.03219486 0.113110006 -0.051954668 0.03486319 -0.014254114 -0.09445697 -0.082150124 0.07104972
0.013217292 0.11529112 -0.032321066 0.07287695 -0.03505801 -0.07442858 0.10245836 -0.10483953
-0.05400976 0.13118051 -0.105028614 -0.076309286 0.17230035 0.09320992 -0.010617551 -0.2509559
-0.1558954 -0.2443881 -0.1203588 -0.29141036 -0.28907093 0.029952591 0.07146776 -0.008895509
-0.008769252 0.045828413 0.15149099 0.030548638 0.026043711 0.12375347 0.011924322 -0.11526359
-0.022761805 -0.04571534 0.0022150604 0.06189084 -0.029613307 -0.038276397 -0.00547627 0.031450354
-0.11309849 -0.064089015 0.045046452 0.087316945 0.07222032 0.04444716 -0.030700898 0.009909606
-0.07088654 -0.05767237 -0.13626488 -0.035617676 0.021048566 -0.045235656 0.06890411 -0.14516921
-0.17338136 -0.06058703 0.06364993 0.10726755 -0.013074449 -0.040937036 0.05348449 0.052900683
0.0044614705 -0.009181184 0.07663872 0.009303515 -0.009331909 0.02509535 -0.08072718 0.032327782
0.034191556 -0.05887684 0.120554306 0.10119818 -0.022105904 0.17988166 -0.13563348 0.03426316
-0.101014 -0.045268964 -0.011194682 0.0012402879 0.03512881 0.0420154 0.13286091 -0.11224465
-0.3718641 -0.2597879 -0.020177107 -0.42723384 -0.12060511 0.18131244 -0.23231126 0.022589223
0.10535647 0.12405613 -0.0073840297 0.09778389 0.03542542 0.10142586 -0.09159706 0.16657667
-0.07343564 -0.04058742 0.10184172 0.04782886 0.09433075 0.07622314 0.15400864 -0.06841996
0.1520713 0.10391842 -0.023908086 -0.029045856 -0.21413352 -0.045857653 -0.07725809 -0.12419691
-0.17803149 0.11896287 -0.046652686 -0.12092499 -0.2595582 -0.20340358 0.16886365 0.2977129
0.27490315 -0.12845677 -0.03748527 -0.17701323 -0.11669334 -0.09405695 -0.054793198 0.21529765
00000000: 5b71 c6bd 64db a63c 16c6 fdbd 25c1 8dbd
00000010: 7230 743d ad4b 09bc 86d7 563d b43e 19bd
00000020: 05c9 a4bc 43bb aabd 9aa1 bdbd db0a 873d
00000030: 1a16 503d 714e ad3d 911e 033e 5d14 383d
00000040: be50 b63c 0af3 7dbc 4e5e b63d 8492 ae3d
00000050: 540b 053e eca4 56bb a586 12be 6917 183e
00000060: cd06 2cbd 140f 44bd f365 c1bb 66a4 93bd
00000070: 5538 8bbc 8213 0abe 3362 4e3d 079a 8abc
00000080: 8569 8f3c 501a acbc e4f0 8a3d 37fb 173e
00000090: 5cab aabd a655 4fbe aa8b 42be 8bb4 9fbb
000000a0: c272 2a3c 7f8e 1cbe 18a8 6bbd f976 603d
000000b0: 7ad6 043e c645 2e3d 2f62 14be c55c 8bbd
000000c0: 017f 233d dcdc 08be 5d52 263c 6a0c 11bd
000000d0: fc9d d6bd 146e 7fbd 74b5 97bd 7dee 12bd
000000e0: b344 a23d 2a82 83bd 891a 9a3d 409b 11bd
000000f0: aaaa af3a 97e6 063b 1e6c 39be b255 f13d
00000100: c9eb 47bd 0421 12bd d3dc e13d ab8d 85bd
00000110: 257c 20bc 1667 68bd ecb6 56be 2031 89bd
00000120: 978b 91bc 76d7 d3bd d430 623d 48b0 143d
00000130: 9fff 80bd 6b99 5fbd 2115 cfbd a789 c2bd
00000140: d376 53bd 98d2 883d 39fb 9bbd 4c37 2f3e
00000150: c0a9 a1bd 7b49 05be 56e3 973c e86b 79bc
00000160: df6c 9dbc cfe0 1e3e 689c a4bd bd22 62bd
00000170: a106 4bbc 733b ff3d dff3 d03d fadc a33b
00000180: 664d 233e 6ea5 963c 22fd aa3d 31df 31be
00000190: a464 2dbe 62be 31bd 5c74 b93c 92c7 20be
000001a0: 452a d9bc 62df eabc 6121 0abd 4ec5 743d
000001b0: 53f1 3bbd 9e37 1d3b 9b0f 133d f89a 9dbd
000001c0: c2de 03bd 38a6 e73d 6bce 54bd b4cc 0e3d
000001d0: 168a 69bc a872 c1bd 533e a8bd 8482 913d
000001e0: 578d 583c c01d ec3d 1863 04bd 8340 953d
000001f0: fd98 0fbd 036e 98bd b0d5 d13d 1cb6 d6bd
00000200: 5739 5dbd 2f54 063e 3e19 d7bd 0b48 9cbd
00000210: 816f 303e d8e4 be3d 3df5 2dbc 4b7d 80be
00000220: 0ba3 1fbe e040 7abe ad7e f6bd bd33 95be
00000230: 1b01 94be 235f f53c b05d 923d 78be 11bc
00000240: e9ac 0fbc 93b6 3b3d 7420 1b3e 2341 fa3c
00000250: 9f59 d53c 7672 fd3d 3b5e 433c 510f ecbd
00000260: f776 babc 0240 3bbd 8c2a 113b 4081 7d3d
00000270: 9b97 f2bc b6c7 1cbd 4872 b3bb 16d2 003d
00000280: 2ea0 e7bd 1a41 83bd a182 383d 3ad3 b23d
00000290: 3fe8 933d 3a0e 363d 7380 fbbc e65b 223c
000002a0: f62c 91bd dd39 6cbd 0589 0bbe d7e3 11bd
000002b0: 0b6e ac3c 0649 39bd 991d 8d3d 3da7 14be
000002c0: e28a 31be 1b2a 78bd e55a 823d 17af db3d
000002d0: 3736 56bc 98ad 27bd 8d12 5b3d 63ae 583d
000002e0: 8731 923b ad6c 16bc c3f4 9c3d c56d 183c
000002f0: dde4 18bc c394 cd3c 4b54 a5bd 236a 043d
00000300: 720c 0c3d d728 71bd 2de5 f63d fe40 cf3d
00000310: 7117 b5bc e632 383e 81e3 0abe 8757 0c3d
00000320: 6ee0 cebd f36b 39bd e669 37bc 2891 a23a
00000330: 3ae3 0f3d 5718 2c3d b10c 083e 86e0 e5bd
00000340: f964 bebe eb02 85be 764a a5bc 65be dabe
00000350: d0ff f6bd f8a9 393e 01e3 6dbe 090d b93c
00000360: 22c5 d73d 2411 fe3d bbf5 f1bb ec42 c83d
00000370: 3f1a 113d 5cb8 cf3d 3d97 bbbd 1393 2a3e
00000380: 6d65 96bd ff3e 26bd 6492 d03d 32e8 433d
00000390: 7b30 c13d e11a 9c3d 71b4 1d3e c41f 8cbd
000003a0: 94b8 1b3e 2ed3 d43d e4da c3bc 93f1 edbc
000003b0: d145 5bbe 3cd5 3bbd 7d39 9ebd f35a febd
000003c0: e34d 36be cea2 f33d e316 3fbd 85a7 f7bd
000003d0: d0e4 84be 0749 50be 98ea 2c3e d36d 983e
000003e0: 1bc0 8c3e 2c8a 03be 288a 19bd f542 35be
000003f0: ebfc eebd eea0 c0bd d56e 60bd fd76 5c3e

mapping.1.0.bias f4 [12]
-0.020505844 -0.033755712 -0.026818972 -0.032253966 -0.024471847 0.047898397 -0.031176476 0.020339305
0.0045710295 -0.0073564313 -0.024577547 -0.005619552
00000000: dffb a7bc 6e43 0abd 76b3 dbbc bc1c 04bd
00000010: 2f79 c8bc 1c31 443d cf65 ffbc 9d9e a63c
00000020: 93c8 953b 380e f1bb da56 c9bc 3824 b8bb

mapping.2.0.weight f4 [12, 12, 3, 3]
0.00084847416 -0.04675965 0.054753933 0.059487402 0.08042001 0.042849828 -0.046629682 0.08299738
-0.009471645 0.077717 0.015576043 0.052857116 -0.073820494 -0.06723933 -0.035434935 -0.052215096
-0.0075128768 0.008250113 -0.01570371 -0.0127249835 -0.23758048 0.1737596 0.18069978 -0.054228332
0.079850875 0.1334618 -0.14233586 0.008565019 -0.054305714 0.010502091 0.02318335 0.08728593
-0.0075869896 -0.0026659388 0.0421276 -0.0773317 0.032148264 -0.024518745 0.11845539 -0.065085754
0.088300645 0.045561895 0.054168984 0.09599987 0.07359479 0.17662574 0.069752716 0.085407
0.015988149 0.009009235 -0.019860592 0.11823782 0.11859698 0.13074026 0.052826706 -0.032639403
0.0023695698 -0.03603956 0.04655109 0.062787496 0.03721708 0.011294317 -0.11403593 0.013682447
-0.07600765 0.01775195 0.10557927 0.0014691198 0.0082330005 0.10751958 0.12226217 -0.0043614977
0.106532946 0.019105703 0.025590515 0.06462726 0.071106985 0.07103179 0.06982208 0.05873395
-0.011227458 -0.02943764 -0.159008 -0.12286795 -0.16166942 -0.14985205 -0.11009121 -0.15044172
-0.17094804 -0.19890721 -0.07389859 -0.08899187 -0.043053135 0.034656577 0.02398338 0.08478184
-0.11237483 -0.053901926 0.016201003 0.057567813 0.16424744 0.123974234 -0.028605314 0.053544484
0.09430793 0.050064754 0.013684641 -0.09518771 0.13977258 0.065050505 0.044536978 0.091781035
0.063504726 0.074191414 0.028630842 0.11202697 -0.010410212 0.106360696 0.039926935 0.061223708
0.0358784 -0.086032875 0.10177161 0.12138345 -0.053573154 -0.050909035 0.02140012 0.037459318
0.02815868 0.13412699 0.16657826 -0.015898338 -0.1068736 -0.02442175 -0.060038693 0.03585272
-0.010640268 0.059413694 0.01005836 0.0763966 0.07747326 0.009572127 -0.02806525 0.05465782
0.092914365 -0.013495429 0.05551025 -0.0759832 -0.12776974 -0.055056553 -0.04962013 -0.031062782
0.10125497 -0.051990144 -0.17194769 -0.114390984 -0.06267372 -0.047945194 -0.1009636 -0.10485562
-0.013959186 -0.05684678 0.15448098 0.12825814 0.017717792 0.06052765 0.028792152 0.12876062
-0.012419772 0.033033576 0.17624238 0.0042314543 -0.025418626 -0.090333976 -0.06902683 -0.07786955
-0.007563217 -0.15788095 0.007476493 -0.15370195 -0.02557899 0.06707499 -0.06943168 -0.06960396
0.016736928 -0.11337883 -0.047762822 0.0536261 -0.049044896 0.097253665 0.105908245 0.096309036
-0.101736225 0.10661468 -0.021303346 0.05280754 -0.020315431 0.016907344 -0.008440697 -0.03438542
0.023289949 -0.11387523 -0.13001513 0.11163387 -0.007983666 0.07980549 0.045296025 0.06683982
0.08008596 0.15396297 -0.0005752623 0.03378014 0.048966084 0.021945043 -0.007118813 -0.046993293
-0.09592119 0.027029091 0.018063422 0.047130942 0.0039401124 0.026991496 -0.0027961077 0.02188315
0.13509257 -0.13617547 -0.10799174 -0.04449556 0.06508471 -0.07454091 -0.10819219 -0.09408735
0.033300743 -0.02212544 -0.013165861 -0.11112279 -0.010244066 -0.09305715 -0.019365901 -0.05451581
0.0045646364 0.101773575 0.016753035 -0.0992678 0.04461247 -0.09988349 0.037149545 -0.05679045
-0.0011083146 0.02243406 -0.033595618 -0.02792145 -0.085175924 0.051137947 -0.09228958 0.11611427
00000000: 236c 5e3a 0c87 3fbd a945 603d 10a9 733d
00000010: 3fb3 a43d 4d83 2f3d c4fe 3ebd 88fa a93d
00000020: f52e 1bbc 172a 9f3d a932 7f3c b480 583d
00000030: 332f 97bd c6b4 89bd 3924 11bd 7fdf 55bd
00000040: 942e f6bb 7b2b 073c 11a5 80bc 737c 50bc
00000050: 4c48 73be 09ee 313e 5d09 393e 871e 5ebd
00000060: db88 a33d 36aa 083e 7ec0 11be 4b54 0c3c
00000070: ab6f 5ebd f610 2c3c 02eb bd3c f7c2 b23d
00000080: 489c f8bb 08b7 2ebb fe8d 2c3d 1560 9ebd
00000090: e6ad 033d 89db c8bc bd98 f23d ae4b 85bd
000000a0: f8d6 b43d 1c9f 3a3d 4ce0 5d3d 949b c43d
000000b0: deb8 963d 61dd 343e 83da 8e3d dde9 ae3d
000000c0: 94f9 823c 789b 133c aeb2 a2bc ac26 f23d
000000d0: f9e2 f23d c6e0 053e d160 583d e5b0 05bd
000000e0: c94a 1b3b 389e 13bd 5bac 3e3d bb96 803d
000000f0: f070 183d cd0b 393c ab8b e9bd 582c 603c
00000100: e6a9 9bbd 8a6c 913c f239 d83d 7b8f c03a
00000110: b5e3 063c 3a33 dc3d 9764 fa3d e5ea 8ebb
00000120: f22d da3d 9083 9c3c 33a3 d13c 4c5b 843d
00000130: 8aa0 913d 1d79 913d e1fe 8e3d 0393 703d
00000140: 5ff3 37bc 3527 f1bc fed2 22be 31a2 fbbd
00000150: ab8c 25be d172 19be 8077 e1bd 650d 1abe
00000160: 010d 2fbe 55ae 4bbe 2558 97bd 5f41 b6bd
00000170: 7c58 30bd 0ef4 0d3d cb78 c43c 1aa2 ad3d
00000180: c624 e6bd 44c8 5cbd f7b7 843c 3acc 6b3d
00000190: 7b30 283e 34e6 fd3d b155 eabc 7651 5b3d
000001a0: 8424 c13d b310 4d3d 8b35 603c c6f1 c2bd
000001b0: 8b20 0f3e 3339 853d 686c 363d b2f7 bb3d
000001c0: c40e 823d abf1 973d 3a8b ea3c 656e e53d
000001d0: 988f 2abc a3d3 d93d 6d8a 233d b6c5 7a3d
000001e0: 3bf5 123d 0132 b0bd a26d d03d e397 f83d
000001f0: 866f 5bbd fe85 50bd 4e4f af3c f16e 193d
00000200: 08ad e63c 9658 093e 7e93 2a3e 3b3d 82bc
00000210: 8ce0 dabd 1f10 c8bc 22eb 75bd 4dda 123d
00000220: 8554 2ebc c65b 733d d2cb 243c d275 9c3d
00000230: 4daa 9e3d 69d4 1c3c 18e9 e5bc e1e0 5f3d
00000240: e349 be3d ef1b 5dbc b75e 633d 149d 9bbd
00000250: 12d6 02be fb82 61bd 7a3e 4bbd 6077 febc
00000260: c45e cf3d 9ef3 54bd 0e13 30be d245 eabd
00000270: 145b 80bd 2e62 44bd 01c6 cebd 8bbe d6bd
00000280: 12b5 64bc 2bd8 68bd 4330 1e3e 1a56 033e
00000290: e724 913c d7eb 773d 85dd eb3c d3d9 033e
000002a0: 4d7c 4bbc 374e 073d e278 343e 03a8 8a3b
000002b0: b93a d0bc 0501 b9bd f05d 8dbd 127a 9fbd
000002c0: ddd4 f7bb 8bab 21be 5efd f43b 0b64 1dbe
000002d0: 088b d1bc 9d5e 893d 3232 8ebd 858c 8ebd
000002e0: e21b 893c 2933 e8bd f3a2 43bd 0ba7 5b3d
000002f0: 4de3 48bd ee2c c73d 6ce6 d83d ac3d c53d
00000300: 155b d0bd cc58 da3d 5b84 aebc b84c 583d
00000310: 8c6c a6bc 4581 8a3c d94a 0abc bad7 0cbd
00000320: 90ca be3c 6b37 e9bd b022 05be 4ca0 e43d
00000330: eccd 02bc 1071 a33d 5388 393d 51e3 883d
00000340: 1c04 a43d 78a8 1d3e 33cd 16ba 0b5d 0a3d
00000350: a990 483d 17c6 b33c ef44 e9bb 0a7c 40bd
00000360: 5472 c4bd 1d6c dd3c bef9 933c 600c 413d
00000370: 0f1c 813b 451d dd3c e73e 37bb 4b44 b33c
00000380: b555 0a3e 9571 0bbe c62a ddbd fa40 36bd
00000390: 224b 853d e8a8 98bd de93 ddbd deb0 c0bd
000003a0: 5c66 083d 6940 b5bc a0b5 57bc 5894 e3bd
000003b0: bad6 27bc bf94 bebd 3da5 9ebc f84b 5fbd
000003c0: f292 953b aa6e d03d a93d 893c eb4c cbbd
000003d0: 91bb 363d b78f ccbd 1f2a 183d 1a9d 68bd
000003e0: de44 91ba a2c7 b73c 8f9b 09bd 86bb e4bc
000003f0: b770 aebd 0676 513d 5202 bdbd 52cd ed3d

mapping.2.0.bias f4 [12]
-0.016146608 0.0012473589 -0.03477486 -0.04474751 -0.014411535 -0.026683426 -0.023063729 -0.071342565
-0.025625939 0.06597229 0.0019404106 -0.07484361
00000000: e445 84bc 6b7e a33a 1570 0ebd 2a49 37bd
00000010: 5c1e 6cbc 3397 dabc 25f0 bcbc 0d1c 92bd
00000020: 7ded d1bc 7b1c 873d 6055 fe3a 9b47 99bd

mapping.3.0.weight f4 [12, 12, 3, 3]
-0.18852572 -0.088243976 -0.13393575 -0.028731609 -0.0473278 -0.059542295 -0.076321736 -0.080680095
-0.0507533 0.02870952 0.00097453344 0.089455225 0.018173443 -0.054164406 -0.0022073733 -0.036139894
0.06413532 0.05188128 0.014088173 0.1263626 -0.040334642 0.12996967 -0.018877167 -0.031200401
-0.019405171 -0.024257654 0.03218436 0.0062431293 0.063691385 8.0333164e-05 -0.08264169 -0.07457169
-0.039866082 -0.09530547 0.0871944 -0.054205474 0.11081706 0.0051934686 0.10148143 -0.035356645
-0.003590552 -0.024286719 -0.00966557 0.08638 0.09241394 0.080498114 -0.042064212 0.043973535
-0.042246357 0.14446269 0.11706335 -0.02608077 -0.006864826 0.0922758 0.058704592 -0.0045023686
0.009470527 0.062070522 -0.036266934 0.10479548 0.015653042 -0.004569869 0.034356266 0.08275414
0.025686156 -0.052248005 -0.051250584 0.03441731 0.11403753 0.029732741 0.09306435 0.07404065
-0.09271114 -0.037697293 -0.0019784698 -0.113934755 0.03157584 -0.13755853 0.04384131 -0.058917034
-0.108022735 0.037247468 0.06175862 -0.093562804 -0.015542818 -0.06500301 -0.04833465 -0.07653498
-0.007631454 -0.0055282963 0.029821683 -0.039453212 0.06640266 0.031787228 0.07372394 -0.026834948
-0.018609773 -0.09255667 0.03597195 -0.055897597 -0.016953724 -0.010448265 0.0051506725 0.102331266
0.10880365 0.040897362 -0.032494888 0.05922437 -0.016256973 0.09029626 0.07594477 -0.060298458
-0.019639067 -0.10985346 -0.13254374 -0.039245296 -0.10935659 0.045083486 -0.039539956 -0.041486867
0.099408194 0.07427306 0.10415749 0.08984753 0.10400785 0.08141605 0.05676492 -0.06310748
0.046370428 -0.042010047 0.06395619 0.09944606 -0.039421752 0.030016938 -0.04837711 -0.020983906
0.084987536 -0.047005933 0.053779602 0.06408622 -0.019157039 0.011312021 0.08921336 0.027102247
-0.06406369 -0.046645913 -0.06678275 -0.07801338 -0.0050166408 0.071127795 0.051894806 -0.057480406
0.033438835 -0.004526536 -0.003606526 0.08908377 0.014297971 0.08899315 0.09464295 0.12426325
-0.04565424 0.076935895 -0.012622838 0.08690659 0.119287424 0.10494474 0.15148845 -0.009105521
0.09680443 0.11662683 0.091304004 -0.0052001975 0.11199497 0.057666466 0.0019483776 0.11006372
-0.013446243 0.11995721 0.12247642 -0.055162128 -0.10175839 -0.10551497 -0.04712128 -0.17095993
-0.07549001 -0.034873396 -0.00072948245 0.010308573 0.024657723 -0.10580884 0.06560021 0.039389897
-0.11305708 -0.11106214 -0.12169444 0.024377739 -0.0612543 -0.04234553 -0.038925875 0.05707579
0.010292336 -0.051173892 0.06344528 0.07944626 -0.05548205 0.051119383 0.078448616 0.001770091
0.041933 -0.033357818 0.058495335 0.09448148 0.088271506 -0.0018509516 0.07981281 0.07712333
0.11565318 -0.0012657628 -0.013196862 0.09978334 -0.029225748 -0.027934093 0.051515337 0.057038594
0.119585834 -0.017461887 -0.19538495 -0.0428759 -0.115493596 -0.16923293 -0.119736984 -0.10764027
-0.023761345 -0.062069222 0.007894403 0.1380788 0.031036466 0.16825104 0.14007142 0.093026
0.08651174 0.084963396 0.15980612 0.059364192 0.106775485 -0.007185162 0.02712318 0.061551336
0.124098755 0.12003926 0.14210185 -0.009844069 0.15977061 0.017658535 0.087886795 0.053201776
00000000: e30c 41be 42b9 b4bd 7426 09be 8d5e ebbc
00000010: ccda 41bd 9fe2 73bd 924e 9cbd 9b3b a5bd
00000020: b1e2 4fbd 3a30 eb3c d577 7f3a 4d34 b73d
00000030: 79e0 943c 7fdb 5dbd 94a9 10bb 6d07 14bd
00000040: 6159 833d 7781 543d 15d2 663c 3365 013e
00000050: f035 25bd c516 053e 4aa4 9abc fc97 ffbc
00000060: 98f7 9ebc fdb7 c6bc bfd3 033d 2a93 cc3b
00000070: a170 823d 8a78 a838 0c40 a9bd 0bb9 98bd
00000080: 9e4a 23bd 842f c3bd fa92 b23d 8f06 5ebd
00000090: 0ef4 e23d f92d aa3b 7fd5 cf3d 21d2 10bd
000000a0: 774f 6bbb f1f4 c6bc 575c 1ebc ffe7 b03d
000000b0: 8543 bd3d 32dc a43d 864b 2cbd 981d 343d
000000c0: 840a 2dbd 07ee 133e e9be ef3d 57a7 d5bc
000000d0: 56f2 e0bb 18fb bc3d 3a74 703d 9b88 93bb
000000e0: 452a 1b3c a93d 7e3d a38c 14bd 039f d63d
000000f0: cf3a 803c d7be 95bb 28b9 0c3d 017b a93d
00000100: c66b d23c 0102 56bd 22ec 51bd 2af9 0c3d
00000110: 828c e93d 1492 f33c 8698 be3d a0a2 973d
00000120: 57df bdbd 7a68 1abd 37a9 01bb a056 e9bd
00000130: ab55 013d 25dc 0cbe f292 333d fd52 71bd
00000140: 063b ddbd cd90 183d 9bf6 7c3d db9d bfbd
00000150: 4ea7 7ebc 4c20 85bd 8efa 45bd 5fbe 9cbd
00000160: 4711 fabb b626 b5bb 9a4c f43c b199 21bd
00000170: 1efe 873d 5333 023d 94fc 963d f7d4 dbbc
00000180: 8673 98bc 5a8e bdbd 5357 133d e1f4 64bd
00000190: 89e2 8abc 332f 2bbc f9c6 a83b 0e93 d13d
000001a0: 73d4 de3d fe83 273d 5c19 05bd 4195 723d
000001b0: 582d 85bc 3fed b83d ee88 9b3d 84fb 76bd
000001c0: 1ce2 a0bc dafa e0bd 8cb9 07be adbf 20bd
000001d0: 59f6 dfbd 76a9 383d a6f4 21bd 22ee 29bd
000001e0: 8696 cb3d 791c 983d 8650 d53d fb01 b83d
000001f0: 1102 d53d 75bd a63d 5582 683d 7f3e 81bd
00000200: ebee 3d3d ba12 2cbd 77fb 823d 60aa cb3d
00000210: b478 21bd 15e6 f53c 1427 46bd 71e6 abbc
00000220: f20d ae3d 4b89 40bd 0048 5c3d a33f 833d
00000230: 39ef 9cbc 0e56 393c 7eb5 b63d 8805 de3c
00000240: d333 83bd c90f 3fbd 65c5 88bd 7bc5 9fbd
00000250: a262 a4bb 73ab 913d a68f 543d 9370 6bbd
00000260: 29f7 083d 5653 94bb 775b 6cbb 8d71 b63d
00000270: 0942 6a3c 0a42 b63d 2ad4 c13d bb7d fe3d
00000280: f1ff 3abd 9190 9d3d 05d0 4ebc 15fc b13d
00000290: f74c f43d 45ed d63d ca1f 1b3e 532f 15bc
000002a0: 6741 c63d 0cda ee3d 98fd ba3d 6b66 aabb
000002b0: 9e5d e53d ac33 6c3d b460 ff3a 1669 e13d
000002c0: a14d 5cbc 20ac f53d ebd4 fa3d aff1 61bd
000002d0: b466 d0bd 3c18 d8bd 3e02 41bd 1f10 2fbe
000002e0: 829a 9abd 68d7 0ebd bd3a 3fba 4ae5 283c
000002f0: fefe c93c 4eb2 d8bd 6759 863d 4d57 213d
00000300: 788a e7bd 8c74 e3bd ef3a f9bd d3b3 c73c
00000310: cae5 7abd 8272 2dbd bd70 1fbd 4ec8 693d
00000320: 30a1 283c b79b 51bd 99ef 813d b9b4 a23d
00000330: 2541 63bd 8f62 513d aba9 a03d 6602 e83a
00000340: f0c1 2b3d 35a2 08bd ce98 6f3d 827f c13d
00000350: b1c7 b43d a19b f2ba e674 a33d d6f2 9d3d
00000360: 93db ec3d f4e7 a5ba a737 58bc 355b cc3d
00000370: d66a efbc 0ad6 e4bc bf01 533d 4da1 693d
00000380: 6be9 f43d 3b0c 8fbc fe12 48be a49e 2fbd
00000390: e887 ecbd 664b 2dbe aa38 f5bd 8072 dcbd
000003a0: 27a7 c2bc 4c3c 7ebd 8757 013c 8764 0d3e
000003b0: 3040 fe3c 004a 2c3e e26e 0f3e 6a84 be3d
000003c0: 112d b13d 4a01 ae3d 37a4 233e de27 733d
000003d0: 1bad da3d 8271 ebbb 6e31 de3c 411d 7c3d
000003e0: 7d27 fe3d 25d7 f53d 2683 113e 0549 21bc
000003f0: e89a 233e a2a8 903c fefd b33d 1bea 593d

mapping.3.0.bias f4 [12]
-0.12860237 -0.08788875 -0.17857365 -0.084619164 -0.1873664 0.10609413 0.06406601 0.059214383
-0.0052346615 0.0931742 0.028701538 -0.14313683
00000000: 57b0 03be 04ff b3bd 03dc 36be d04c adbd
00000010: fadc 3fbe e147 d93d 0a35 833d c88a 723d
00000020: 8687 abbb 1dd2 be3d 7d1f eb3c 7692 12be

expanding.0.weight f4 [56, 12, 1, 1]
0.33141944 0.083749056 -0.06678622 0.31908122 -0.019427875 -0.34192386 0.19487776 0.04434912
0.23401318 -0.17617513 -0.24202093 -0.09387057 0.04956201 -0.057630267 0.3053188 0.06063944
0.07421965 -0.04198657 -0.0049048807 -0.021486415 -0.09930479 -0.08105441 -0.0874521 0.14213431
-0.14714682 -0.26034892 0.05101894 0.101504594 -0.28484097 0.24920619 -0.033538315 0.41440642
0.06550987 -0.08545464 -0.04082903 0.22436683 0.25003603 -0.10470684 -0.006970298 -0.02587373
0.121290356 -0.088694714 0.027208192 -0.2117704 0.002026148 -0.20799437 -0.020158531 -0.012517197
0.0833051 -0.11385639 0.13076566 0.34604257 0.024076564 0.15796372 -0.05615461 0.061950095
0.11360168 -0.158374 -0.05289596 0.036725603 0.033850156 -0.13253692 -0.058145534 -0.011419809
-0.07325651 0.30574536 0.06074189 0.33099127 -0.13985388 0.07638813 -0.08588884 -0.11710201
0.06511427 -0.015063066 0.1287349 -0.034960892 -0.2698933 0.21587445 -0.04462697 0.027447997
-0.3209933 0.048423804 -0.30253938 -0.17370088 -0.024590317 0.1557652 0.21779226 -0.08150772
-0.07039318 -0.2011651 -0.10723447 -0.09166283 0.10639611 0.03928894 0.17555954 0.0019439982
-0.20437737 -0.18640062 -0.29335654 0.17268027 -0.30883655 -0.01907664 0.18834454 0.296264
-0.020899013 -0.08540926 -0.08032043 0.15880795 0.1702113 -0.20454744 -0.10240386 -0.13560715
-0.17572749 -0.08499706 0.20418103 0.28374478 -0.38254783 -0.07839452 0.03538937 -0.23668227
0.24663201 0.035295103 -0.078878015 0.061698142 0.0993885 0.22944191 -0.019206678 -0.0504677
0.064290665 0.23602358 -0.057666473 -0.116252355 0.15023826 0.13609521 0.3489479 0.13642785
0.07737469 -0.29271758 -0.32284084 -0.21887608 0.26522768 -0.015471013 -0.23595975 0.29561377
0.0019650913 0.2043384 0.013061662 0.03787135 -0.112888634 -0.052441493 0.17426838 -0.0067890817
0.13423333 0.03698834 -0.11946564 0.13200317 0.009836062 -0.15503758 -0.23570713 0.1797055
-0.1965771 0.07993831 -0.043017488 0.0009636801 0.1465788 0.0031637712 0.0934125 -0.21791792
0.22909826 0.09843951 -0.034444757 0.25105432 0.2718885 0.08507439 0.24079399 -0.08331127
-0.25055742 0.16919178 -0.22589305 0.07019859 0.17212513 -0.21243666 -0.16469708 -0.013678527
0.024511797 -0.080965534 0.055343933 0.19722873 0.14302635 -0.1240409 -0.14997096 0.02831203
0.1874683 0.03350707 -0.23722547 0.24602696 -0.22563022 0.19198592 -0.072495736 0.05045262
-0.34181908 -0.24327604 0.21425654 -0.23419224 -0.07798554 0.14300357 -0.12979887 -0.33189088
0.04058803 -0.07188435 0.28775996 0.16463873 0.15197906 -0.031051336 0.1467394 -0.23447804
-0.019712871 0.3343652 0.06826601 0.19103408 -0.15004317 -0.35001457 -0.0027423396 -0.14229739
-0.046567585 -0.33989346 0.14859673 -0.11803104 -0.027821055 0.15464056 -0.07914037 0.06619877
0.36734596 -0.15141404 -0.3904528 -0.2758713 0.180071 0.0029348528 -0.017891582 0.30010742
-0.07596526 0.12687615 -0.12047818 0.09106775 -0.08194165 -0.0042291 -0.27223423 0.25124893
0.26182884 -0.17355147 -0.24485339 -0.1331528 0.20517398 0.18975699 -0.32654133 0.058586843
00000000: cfaf a93e a084 ab3d 37c7 88bd 9d5e a33e
00000010: 3527 9fbc a510 afbe 098e 473e 6ca7 353d
00000020: 27a1 6f3e 4167 34be 56d4 77be 373f c0bd
00000030: 8901 4b3d b70d 6cbd bf52 9c3e 1061 783d
00000040: 7900 983d 1cfa 2bbd 1fb9 a0bb 4704 b0bc
00000050: 4f60 cbbd dbff a5bd 161a b3bd a88b 113e
00000060: a8ad 16be 744c 85be 3cf9 503d a4e1 cf3d
00000070: add6 91be e82f 7f3e 795f 09bd 142d d43e
00000080: 0a2a 863d d802 afbd 573c 27bd 6bc0 653e
00000090: b904 803e 8a70 d6bd 1967 e4bb 25f5 d3bc
000000a0: 1467 f83d 93a5 b5bd b7e3 de3c 57da 58be
000000b0: 1fc9 043b 7afc 54be 8123 a5bc ee14 4dbc
000000c0: dd9b aa3d 8a2d e9bd 6fe7 053e 7e2c b13e
000000d0: 373c c53c 3ec1 213e 6002 66bd 62bf 7d3d
000000e0: ffa7 e83d cb2c 22be 6fa9 58bd 966d 163d
000000f0: 76a6 0a3d c2b7 07be 032a 6ebd 271a 3bbc
00000100: 8207 96bd a88a 9c3e 7dcc 783d b077 a93e
00000110: db35 0fbe 6171 9c3d 7de6 afbd 2ed3 efbd
00000120: a15a 853d 14cb 76bc 15d3 033e 2733 0fbd
00000130: 742f 8abe 310e 5d3e c5ca 36bd 9fda e03c
00000140: 3c59 a4be 0a58 463d 71e6 9abe a5de 31be
00000150: a271 c9bc ea80 1f3e ef04 5f3e 85ed a6bd
00000160: 4d2a 90bd 39fe 4dbe bf9d dbbd b9b9 bbbd
00000170: 34e6 d93d 71ed 203d e1c5 333e c1cd fe3a
00000180: 4d48 51be cedf 3ebe d432 96be 19d3 303e
00000190: d31f 9ebe 9d46 9cbc 64dd 403e eaaf 973e
000001a0: 6834 abbc 0deb aebd 0a7f a4bd 8d9e 223e
000001b0: df4b 2e3e e274 51be 1db9 d1bd 9adc 0abe
000001c0: e8f1 33be f012 aebd d514 513e ff46 913e
000001d0: 4fdd c3be 4e8d a0bd 72f4 103d d65c 72be
000001e0: 1a8d 7c3e 9991 103d cc8a a1bd 31b7 7c3d
000001f0: 338c cb3d d2f2 6a3e 5357 9dbc 38b7 4ebd
00000200: d3aa 833d 2ab0 713e ae33 6cbd b715 eebd
00000210: 0fd8 193e 8b5c 0b3e 4da9 b23e beb3 0b3e
00000220: 9f76 9e3d 14df 95be 654b a5be 0d21 60be
00000230: eccb 873e 227a 7dbc 6f9f 71be b05a 973e
00000240: c3c8 003b 163e 513e 9500 563c fd1e 1b3d
00000250: 2832 e7bd e4cc 56bd 6973 323e f276 debb
00000260: 7674 093e 1681 173d 67aa f4bd d72b 073e
00000270: 6f27 213c 2cc2 1ebe 365d 71be b804 383e
00000280: 824b 49be b2b6 a33d 1b33 30bd 7a9f 7c3a
00000290: c118 163e 4657 4f3b 0e4f bf3d e025 5fbe
000002a0: bc98 6a3e a79a c93d f215 0dbd 318a 803e
000002b0: f834 8b3e 7b3b ae3d b392 763e 199f aabd
000002c0: 1049 80be 9c40 2d3e 8250 67be 47c4 8f3d
000002d0: 9241 303e ff88 59be 5aa6 28be e71b 60bc
000002e0: f7cc c83c 42d1 a5bd 52b0 623d 54f6 493e
000002f0: 8075 123e 2809 febd fd91 19be a1ee e73c
00000300: b1f7 3f3e b63e 093d 3ceb 72be 7eee 7b3e
00000310: 9c0b 67be f597 443e a578 94bd 68a7 4e3d
00000320: e902 afbe 5b1d 79be 1166 5b3e 17d0 6fbe
00000330: e2b6 9fbd 876f 123e ffe9 04be 9aed a9be
00000340: a23f 263d 1a38 93bd 4655 933e 0e97 283e
00000350: 66a0 1b3e 5f5f febc da42 163e 031b 70be
00000360: e37c a1bc ea31 ab3e 0dcf 8b3d 709e 433e
00000370: eba4 19be 1c35 b3be d3b8 33bb 68b6 11be
00000380: a7bd 3ebd 8406 aebe be29 183e 42ba f1bd
00000390: fbe8 e3bc 185a 1e3e 5914 a2bd 3993 873d
000003a0: c514 bc3e 480c 1bbe 6ee9 c7be 013f 8dbe
000003b0: 8864 383e a956 403b 5e91 92bc aea7 993e
000003c0: ad93 9bbd d2eb 013e 44bd f6bd ba81 ba3d
000003d0: 06d1 a7bd 4394 8abb 4962 8bbe b3a3 803e
000003e0: 6e0e 863e 7ab7 31be d9ba 7abe 3559 08be
000003f0: 2119 523e a84f 423e 6d30 a7be c2f8 6f3d

expanding.0.bias f4 [56]
0.0133740315 0.029442234 -0.12747416 -0.015879616 0.020417525 -0.11903175 -0.123449795 0.015639277
-0.1655338 -0.16729394 -0.06629358 0.111617014 -0.046826452 -0.066548705 -0.08154577 -0.011372035
-0.037198868 -0.11816583 0.08033973 0.10036768 -0.038245644 -0.015276065 0.02648541 -0.024875306
0.0770537 0.044471644 -0.057695314 -0.12364739 -0.046196382 -0.17996833 0.032539137 0.05449032
-0.06542207 0.07455394 -0.08267259 -0.0293981 -0.07622666 -0.08969207 0.09416246 -0.14547902
-0.11815294 0.107084885 0.046716105 -0.06491057 0.06313514 -0.15211836 -0.052394923 0.113017894
0.029512303 -0.09110251 0.109794125 0.03192852 -0.2015528 0.040323667 -0.030198501 -0.050095372
00000000: c11e 5b3c d730 f13c 9688 02be f815 82bc
00000010: a742 a73c ebc6 f3bd 3fd3 fcbd f11d 803c
00000020: b181 29be 1a4f 2bbe eec4 87bd 7697 e43d
00000030: 18cd 3fbd b04a 88bd 7801 a7bd c651 3abc
00000040: d75d 18bd ed00 f2bd 2889 a43d 928d cd3d
00000050: 77a7 1cbd 7648 7abc eef7 d83c 4cc7 cbbc
00000060: 55ce 9d3d e627 363d ec51 6cbd d83a fdbd
00000070: 6b38 3dbd 9e49 38be c247 053d 3e31 5f3d
00000080: 02fc 85bd bcaf 983d 3f50 a9bd 49d4 f0bc
00000090: b91c 9cbd 7ab0 b7bd 3fd8 c03d 74f8 14be
000000a0: 2bfa f1bd 524f db3d 6359 3f3d d5ef 84bd
000000b0: ff4c 813d eac4 1bbe 0f9c 56bd ed75 e73d
000000c0: c9c3 f13c f493 babd bedb e03d 7bc7 023d
000000d0: db63 4ebe 6e2a 253d d962 f7bc ce30 4dbd
