specific_test_3A/best_fsrcnn_model_best.pth (torch, 58527 bytes, 15 tensors)

feature_extraction.0.weight f4 [56, 1, 5, 5]
000000 fe 3b e3 be 66 95 27 bf e7 e3 d8 be 93 93 53 bf
       -0.44381708 -0.6546234 -0.42361376 -0.82647055
000010 b2 cb 45 bf f4 dd 35 bf a6 5d c2 3d 91 46 32 3f
       -0.7726394 -0.710418 0.09490518 0.69638926
000020 11 c2 dd bd e8 bc 19 bf 02 78 e1 bd 04 c4 eb 3f
       -0.10828031 -0.60053873 -0.11009218 1.8419194
000030 f8 04 0f 40 c6 6d 9f 3f 89 93 4b 3d cd 9d 80 bd
       2.2346783 1.2455375 0.049701247 -0.06280098
000040 66 68 a5 3f 46 2a b4 3f e0 9c 48 3f da 5d bc 3e
       1.2922485 1.4075401 0.7836437 0.36790353
000050 12 1d e1 be 91 93 b1 be a1 cb 9f bd 14 e9 0e be
       -0.4396749 -0.34682897 -0.07802511 -0.139561
000060 4c 0d 43 be 36 e9 50 3f 88 e8 4c 3f 54 62 8b 3f
       -0.19048041 0.8160585 0.80042315 1.0889382
000070 21 6d 42 3f ec 69 52 3f a3 83 17 3f 05 76 65 3f
       0.7594777 0.82192874 0.59185237 0.8963321
000080 d1 35 4c 3f df 75 82 3f ba f6 80 3f 1a cb 4c 3f
       0.7976962 1.0192221 1.0075295 0.7999741
000090 f4 0d 77 3f cb 38 6d 3f e5 88 80 3f fa bc 61 3f
       0.96505666 0.92664784 1.0041777 0.8817898
0000a0 d3 ad 61 3f 64 a7 3a 3f c2 5d 4c 3f 19 8b 5f 3f
       0.8815586 0.7291167 0.79830563 0.8732162
0000b0 54 fe 61 3f 9d ed 43 3f bb 62 1e 3f 17 c6 5c 3f
       0.882787 0.76534444 0.618694 0.8623976
0000c0 ba 75 37 3f e2 d0 6a 3f 76 e8 cb 3e 12 1c e1 3d
       0.7166401 0.9172498 0.3982579 0.10991682
0000d0 3a 0b 9a 3d a7 a8 7f 3e 89 2c cc 3d e5 c0 8f 3d
       0.075216725 0.2496668 0.09969432 0.070192136
0000e0 fb 6a a4 3e 8e 9d da 3e ee b0 20 3e 7c a0 16 3e
       0.3211287 0.4269833 0.15692493 0.14709657
0000f0 31 8f e0 3e 3c a0 05 3e 51 96 59 3e ec 40 cb 3e
       0.43859246 0.13049406 0.21248747 0.3969797
000100 4f 5d b1 3d 3e 8a bd 3e bc 14 c4 3e 51 dc 83 3e
       0.08660375 0.37019533 0.3829707 0.25754026
000110 8f b9 e1 3e 1c 9a af 3e 21 d9 77 3e 21 41 bf 3e
       0.44086882 0.34297264 0.24203922 0.37354377
000120 e5 3d a0 3e c2 94 c3 3e d4 f1 42 3e ec 65 20 3e
       0.31297222 0.3819943 0.19037563 0.1566388
000130 aa a7 19 3e 16 51 4c bc f1 12 a2 3e f3 43 03 bb
       0.15005365 -0.012470504 0.31655076 -0.0020029515
000140 86 9c b7 bd aa 90 16 3d b1 6a d8 bb ba 6b 8a 3e
       -0.08965401 0.036759056 -0.0066045155 0.27035314
000150 2f ad 9b 3c 10 c5 60 bd ea 02 e2 3d fd 67 09 bd
       0.019003479 -0.054875433 0.11035712 -0.033546437
000160 89 5c 4d bd 9a 3b 46 3d 85 db 87 3b a5 d4 30 bd
       -0.050137077 0.048396684 0.004146042 -0.043171544
000170 9d 9a 14 3c 46 13 80 bd c1 fa a5 3e f5 3f a7 3d
       0.009070066 -0.06253676 0.32417873 0.08166496
000180 c2 d6 1e 3e c3 21 ed 3d 72 16 55 3d 57 3d 45 3e
       0.15511611 0.11578705 0.05202336 0.1926168
000190 b1 39 36 3e 1e c0 86 3e b9 c1 03 3e a4 74 21 3e
       0.17795445 0.2631845 0.12866868 0.15767151
0001a0 9f c1 32 3e 51 ba 8a bd ad ff 15 bd 47 97 51 3e
       0.17456673 -0.06773818 -0.036620785 0.20467864
0001b0 90 50 b4 3e f1 92 9f 3e 3e bb 82 3d cf 0b d4 3d
       0.35217714 0.31166795 0.0638337 0.10353815
0001c0 c1 e9 69 3e 7e 5b 68 3e e1 69 6b 3e 45 dd ed bc
       0.22843076 0.22691151 0.22989608 -0.029036174
0001d0 19 c0 95 3e 9c 1c a0 3e d8 8a 9f 3e 4d 36 80 3e
       0.2924812 0.31271827 0.31160617 0.25041428
0001e0 de da a6 bb 6b bc 59 3e 25 02 67 3e 5e 81 7c 3e
       -0.005092009 0.21263282 0.22559412 0.24658725
0001f0 f9 ae 7a 3e 51 77 69 3e a8 5b 60 3e da 8e ce 3e
       0.2448081 0.22799422 0.21909964 0.40343362
000200 07 39 c2 3e f9 3e d8 bc 26 a8 01 3f cc b0 2d 3f
       0.37934133 -0.026397215 0.506472 0.67847896
000210 8f 8b 33 3f fc 37 d1 3e 92 6e 82 3e 1e 52 5e 3f
       0.70134825 0.40863025 0.25474983 0.8684405
000220 ca ab 42 3f a9 40 6b 3f 09 49 05 3f 62 99 89 3e
       0.7604338 0.9189554 0.5206457 0.26874834
000230 1a ab 6a 3f 48 a7 6f 3f 85 87 49 3f e8 e8 34 3f
       0.9166733 0.93614626 0.7872241 0.70667887
000240 bc 67 db 3e f7 98 57 3f 75 b7 28 3f 05 6e 04 3f
       0.4285258 0.8421778 0.65904933 0.51730376
000250 22 0b 36 3f 78 da 12 3f ad a3 16 bc 2f 57 c9 3d
       0.7111074 0.57364607 -0.009194297 0.09831082
000260 fe 9c 51 3c 0a 04 08 be 9e dc 9d bd ab 73 9b 3d
       0.0127937775 -0.13282791 -0.07708095 0.07590421
000270 58 72 3c be 12 a8 5c 3d 09 4e aa 3d 82 75 ae 3c
       -0.18402994 0.05387122 0.08315665 0.021296266
000280 dd 76 3d be c6 a1 51 bd 17 5f c1 bd 08 60 80 be
       -0.18502374 -0.05117967 -0.09441965 -0.25073266
000290 6d da 4b bd da 44 7a bd a2 09 9c 3d 77 b6 30 bc
       -0.049768854 -0.06110082 0.07619025 -0.0107856905
0002a0 f1 91 20 bd 5d 24 1a be 98 42 0c be 28 16 0a be
       -0.03920168 -0.15052934 -0.13697278 -0.13485014
0002b0 14 5b 3d be 01 85 ec bd f0 aa a1 3c fa ba 7e 3f
       -0.18491775 -0.11548806 0.01973483 0.99504054
0002c0 ef 08 89 3f c1 00 b2 3f bb d7 7e 3f ca d7 88 3f
       1.0705851 1.390648 0.9954793 1.0690854
0002d0 24 66 99 3f 72 4f c3 3f 6a bd c8 3f 14 e7 b9 3f
       1.1984296 1.525862 1.5682805 1.4523644
0002e0 98 c0 a4 3f 57 33 b9 3f b8 18 c7 3f d2 74 ba 3f
       1.2871275 1.4468793 1.5554419 1.4566901
0002f0 f6 19 a7 3f e9 0c ba 3f fa 8c bd 3f 14 c4 c7 3f
       1.3054798 1.453519 1.4808648 1.5606713
000300 ad 83 d2 3f 40 c8 9b 3f 27 43 a0 3f 2b e4 a8 3f
       1.6446434 1.2170486 1.2520493 1.3194631
000310 1a c3 9d 3f b5 02 9b 3f 9d a0 b8 3f 22 e7 9c 3f
       1.2325165 1.2110201 1.4424015 1.2258036
000320 90 91 34 bf 75 ff 19 bf e6 79 4d bf 21 61 59 bf
       -0.7053461 -0.6015542 -0.8026413 -0.8491383
000330 4f f4 6a bf 45 9a 17 bf 0b e8 1f bf 2c 0f 7c bf
       -0.91779035 -0.5921977 -0.62463444 -0.9846065
000340 b1 c0 80 bf 6d af 30 bf 70 15 33 bf 1d 25 55 bf
       -1.0058805 -0.6901768 -0.69954586 -0.83259755
000350 d5 b7 80 bf 11 63 58 bf 64 61 50 bf d1 14 ba be
       -1.0056101 -0.84526163 -0.81398606 -0.36344007
000360 3f 2e 3b bf d4 ec 4c bf 3d 0d 4b bf 22 c4 42 bf
       -0.7311744 -0.8004887 -0.79317075 -0.76080525
000370 2e bd b3 be db e3 8b be cc 4b ef be 91 b6 f8 be
       -0.3510527 -0.27322277 -0.46737516 -0.48576787
000380 c0 6a 4a bf 3a 4d 25 3f e4 20 84 3f c3 ec 89 3f
       -0.7906914 0.64570963 1.0322537 1.0775379
000390 1c 78 3b 3f 22 ce 53 3f 3b 0f 83 3f 49 45 89 3f
       0.7323015 0.8273641 1.0239023 1.0724269
0003a0 b3 23 8c 3f 8b 54 90 3f ce f4 8f 3f 1c b8 86 3f
       1.0948395 1.12758 1.1246583 1.0524936
0003b0 9d f1 9a 3f 4d e6 b7 3f 9e 7f a5 3f 53 64 6c 3f
       1.2104985 1.4367157 1.2929571 0.9234058
0003c0 5c 91 59 3f f6 cd a2 3f 73 d7 ac 3f 23 d5 a1 3f
       0.84987426 1.2719104 1.350325 1.2643169
0003d0 f8 18 8f 3f 35 32 6a 3f 15 a4 86 3f 5c 07 97 3f
       1.1179495 0.9148286 1.0518824 1.1799121
0003e0 76 5f 97 3f 58 12 7f 3f 58 fc 36 3d 83 f0 30 3d
       1.1826007 0.99637365 0.044674248 0.04319812
0003f0 b5 f6 89 3c d4 e6 7c 3d 43 28 99 bc 8f 78 fc 3d
       0.016841272 0.061743572 -0.018695956 0.12327682

feature_extraction.0.bias f4 [56]
000000 f5 b4 9e 3b b2 b4 aa 3d 77 ce 4b bd b3 9a ce bb
       0.004843349 0.08335246 -0.049757447 -0.0063050627
000010 a4 24 e9 bc 41 05 36 3b ad cd b2 bc 63 c6 55 3c
       -0.028459854 0.0027774128 -0.02182659 0.013047787
000020 31 24 28 3d 79 20 9c 3c db 6f 04 be 6b e5 ab bd
       0.04105014 0.019058453 -0.12933294 -0.083933674
000030 8b d2 fb bd 70 3a 01 be e9 fc 21 3c 90 6b 75 bc
       -0.12296017 -0.12619948 0.009886959 -0.014979258
000040 96 8b 81 bd 6d 7f e1 bc 37 74 b6 3b a1 23 69 3d
       -0.06325452 -0.027526582 0.005568053 0.056918744
000050 39 0b ac bd 97 0f 20 bd 1f f6 f0 bd 1c d9 a7 bc
       -0.08400578 -0.039077368 -0.11765694 -0.020489268
000060 14 b3 ae 3c fc f8 da bc e7 cc d2 bb 40 f0 96 bd
       0.021325625 -0.026730053 -0.0064331177 -0.07370043
000070 4a 87 72 bc c6 aa 84 bd 6f c3 2a 3d 4b c4 1a 3e
       -0.014802763 -0.06477885 0.041690286 0.15113942
000080 b2 9a 08 bd b2 10 c1 bc ba 9d 6e bc ea a4 12 3c
       -0.033350654 -0.023567531 -0.014563972 0.008950451
000090 8b 6d 38 3d 22 a3 a5 3d 36 c3 0d bd ce 85 e7 bd
       0.045026343 0.08087756 -0.034609996 -0.11304818
0000a0 c8 1c 18 be a8 6e a8 3d c5 4e c8 bb 48 0b 75 3d
       -0.14854729 0.08224231 -0.0061129057 0.05982521
0000b0 84 ce 56 3d b9 dc 16 3e ea 76 b8 bb 97 ff e6 3d
       0.052443042 0.14732637 -0.00562941 0.11279219
0000c0 06 fc be bc ae 60 07 be be eb 7d 3b df 2e a2 bc
       -0.023313534 -0.13220474 0.003874525 -0.01979774
0000d0 1f 22 f4 bd 28 c6 bc bc e9 1d d1 bc 72 5a c5 bc
       -0.119205706 -0.023043707 -0.025526958 -0.02409098

shrinking.0.weight f4 [12, 56, 1, 1]
000000 c5 a4 5c be f0 a9 e9 bc 2c 33 bf bd 32 18 88 bc
       -0.2154723 -0.028523415 -0.09335932 -0.0166131
000010 89 e2 92 bc 6c 02 49 be c9 ac 8a bc 8a bd 8c b9
       -0.017930286 -0.1962983 -0.016928094 -0.00026844098
000020 b1 e1 b9 3d f5 92 1e 3d 8a 9d 96 3d 1d 70 93 3d
       0.0907625 0.038714368 0.07354267 0.07199118
000030 18 7a 1e be fe 38 1a bd 73 76 02 3e 77 06 18 3d
       -0.15476263 -0.03765201 0.12740497 0.03711554
000040 e0 f5 f9 bd 78 8c 51 bd de f5 fd bc 82 00 c0 bc
       -0.122051 -0.051159352 -0.031001028 -0.023437742
000050 f7 9c 0e be e9 12 80 3d e4 d5 b8 bb 5e 7c 85 3d
       -0.13927065 0.06253607 -0.005640732 0.06517862
000060 40 4c 1b 3e 59 33 ec bd c8 78 32 3e fc c4 ab 3d
       0.15165806 -0.11533231 0.17428887 0.08387181
000070 9b 43 e7 bd 17 35 24 bd 57 63 4d 3e 0f 83 37 3d
       -0.112921916 -0.040089693 0.20057426 0.04480272
000080 53 5b c2 3d 91 06 2f 3d 47 4b 83 be ce 6f 7d 3e
       0.09490075 0.04273087 -0.2564337 0.24749681
000090 e2 e6 3d bc f5 0e a8 bd 99 19 0b be 47 1e e2 bb
       -0.011590691 -0.08205978 -0.13583983 -0.006900582
0000a0 79 e3 33 bd 9b 1c 8b bd 5f 2b a9 3d 38 0a 41 bd
       -0.043918107 -0.067925654 0.082602255 -0.047128886
0000b0 82 98 01 3e 45 81 9c 3d 81 b9 13 bc 71 ea e7 3d
       0.12655833 0.07641844 -0.009016396 0.11324013
0000c0 7e c2 a4 bc 3e 9a 0e bd 6c 7b 88 be 43 26 f7 3d
       -0.020112272 -0.034815066 -0.26656663 0.12067845
0000d0 1c d5 85 bd d9 cb f9 bd ff 84 1a be 53 57 a5 3d
       -0.06534788 -0.12197084 -0.15089796 0.080732964
0000e0 eb be 11 3f b1 5b f2 3c 70 32 a6 bd ac 56 53 3c
       0.5693194 0.029584737 -0.08115089 0.012899082
0000f0 07 0d 0b 3d 5e 2a 65 3d 2b 15 b1 bd a5 62 93 3e
       0.03394797 0.055948608 -0.086466156 0.28786197
000100 2b 74 b0 3d 10 78 53 3e e9 c8 1f be 8f f5 61 bc
       0.08615907 0.20651269 -0.15603985 -0.013791456
000110 53 bb 8d 3d f0 52 40 bd 40 db 1a be 0d a9 46 3d
       0.06920495 -0.046954095 -0.151227 0.048501063
000120 e7 aa 8b bd aa 48 55 bd e7 41 49 3e 20 e6 04 3e
       -0.068197064 -0.05207125 0.19654046 0.1297841
000130 b9 13 8b bc 68 45 29 3c a6 e3 1e be 79 71 32 be
       -0.016977178 0.010331489 -0.15516528 -0.17426099
000140 18 9f 1a 3e d6 cc a2 3d db c7 c2 bc dc 16 0d be
       0.15099752 0.079492256 -0.02377694 -0.13778251
000150 a0 b2 c7 bd 24 d5 fb bd b2 e2 09 bc ad 4a 35 3e
       -0.09750867 -0.12296513 -0.008415865 0.17704268
000160 fe 7f 5b bd f5 b0 23 bd de 5d cb 3c 7b a3 3b be
       -0.05358886 -0.03996368 0.024825033 -0.18324082
000170 f9 1a c3 bc dc 1f 39 bd 36 00 a7 3c 57 66 85 3d
       -0.023816573 -0.0451964 0.020385843 0.065136604
000180 0b ed 68 3d 9f 1f f5 3d f3 48 22 3d 31 0a 4b 3d
       0.056866687 0.11968922 0.03962035 0.049570266
000190 00 01 93 bd 7f 88 73 bd b2 e6 cf bd 57 9f a1 3d
       -0.07177925 -0.059456345 -0.101514235 0.0789172
0001a0 15 7c 83 bc 0c a1 e2 bd 38 ab 09 3f 9c d2 ce bd
       -0.016050378 -0.110658735 0.53776884 -0.10098764
0001b0 17 6a da bd 87 4b e3 3d a1 c9 c1 bc 75 af 92 3d
       -0.10664766 0.1109839 -0.023655714 0.07162372
0001c0 77 f7 2f 3f cb b8 07 be ba 6f 21 bd 35 d5 b5 bb
       0.68736976 -0.13254087 -0.03941319 -0.005549098
0001d0 e4 81 1e 3c 02 78 89 3d b7 51 f3 3d 78 32 d5 3c
       0.009674523 0.06712343 0.1188082 0.026025042
0001e0 b9 07 33 3d e0 a0 8c 3d 94 72 c4 3d bd 7a 4d bd
       0.043708537 0.06866622 0.095921665 -0.05016588
0001f0 25 79 c2 bd dc 69 08 3d f5 82 ee bd 67 ac 6a bd
       -0.09495763 0.03330408 -0.11646072 -0.057293322
000200 27 fe 59 3d 92 dc 66 bc 43 82 33 3e b2 dd 72 bc
       0.053220894 -0.014090674 0.1753016 -0.014823364
000210 5f ff 7e bd 96 9c 34 3d 3c a4 ac 3d 5f 0f dc 3c
       -0.06225526 0.044094644 0.08429763 0.026862798
000220 2c e5 c7 3d 7b db 09 bc eb 60 f0 bc a3 5b e9 3d
       0.09760508 -0.008414145 -0.02934309 0.113944314
000230 79 cb 0d 3e 66 ab e9 bc eb 9e fd bc 55 33 3e bd
       0.1384715 -0.028524112 -0.030959567 -0.046435673
000240 84 77 c4 bd 75 f7 78 3d 29 e9 39 3e 8d a9 3e be
       -0.09593108 0.06078287 0.1815535 -0.18619366
000250 9b 18 ac bd 74 70 2d bd ea 58 88 bc 54 c5 e3 bd
       -0.084031306 -0.04234357 -0.01664396 -0.11121622
000260 6a ee 28 3c b6 92 72 3d 90 e7 9e 3d 46 dc 98 3c
       0.010310749 0.059221946 0.07759011 0.018659722
000270 35 2f 78 bc 3c 8a 87 bd c1 b8 01 3e 47 29 93 3d
       -0.015147974 -0.06618163 0.12668134 0.071856074
000280 67 13 c7 3d 4a d4 07 bd 36 87 25 3f c1 2d ed bd
       0.097204976 -0.03316144 0.6465944 -0.115809925
000290 4a fa ba 3d 38 d3 e3 bd 1d 51 4c 3d f5 c1 18 3d
       0.0912977 -0.11124271 0.049882043 0.037294347
0002a0 55 90 93 3f 5a ea fc 3d 74 dc 9a bd 90 a0 97 bd
       1.1528422 0.123493865 -0.07561579 -0.07403672
0002b0 89 14 a6 3d ea 11 aa bc 0a 06 24 3d df cd f6 bc
       0.081093855 -0.020760495 0.04004482 -0.030127464
0002c0 ec 8f 3f bd b5 8e 92 3d 6b d4 68 bb 9b f9 ad 3d
       -0.046768114 0.071561255 -0.0035527002 0.08494874
0002d0 8d 2d 65 3c bf c7 89 3d 63 3a 2a bd ec b3 46 3d
       0.013987911 0.06727552 -0.04155959 0.04851143
0002e0 eb 69 25 be c8 6e cf 3c eb e4 b0 bc a8 b7 19 3e
       -0.16153686 0.02532138 -0.021593532 0.15011466
0002f0 bd dd 2c be bf 19 c8 3d 04 09 93 3d 46 8c 9d bd
       -0.16881461 0.09770536 0.07179454 -0.07692771
000300 fe 5c a0 3d f6 62 a7 3b 59 3b 97 3d 15 2b 26 be
       0.07830237 0.0051082326 0.073843665 -0.16227372
000310 3b 99 a2 3d f7 14 5c 3d a8 b7 8a 3c 81 be 00 be
       0.07939383 0.05373093 0.016933277 -0.12572671
000320 14 05 9f bc a0 1f 6d bd 6f a4 04 3f fd bc 63 be
       -0.019411601 -0.057891488 0.51813406 -0.22240062
000330 26 3a b7 bd 40 d7 39 3d 3d d1 10 be 22 13 d9 bc
       -0.08946638 0.045371294 -0.14142318 -0.026498381
000340 6a 5f 29 be 5b 55 27 bd e5 85 9a bd 14 8a 9d 3d
       -0.16540304 -0.040852886 -0.075450696 0.07692352
000350 d5 f0 d0 bd 8d fa 4d 3c 16 6e 18 3e 9e c3 f4 3d
       -0.10202185 0.012571943 0.14885744 0.119513735
000360 68 35 98 3c 26 c3 ac bb f4 46 5f 3f 88 7b 05 3e
       0.018580154 -0.005272287 0.8721764 0.13035405
000370 3a de 77 bd 93 6e 9f 3d 4a a1 32 3d 91 eb f6 3c
       -0.060514666 0.07784762 0.04361085 0.030141624
000380 92 31 5c be b5 e3 92 bd 12 dd 67 bd 8b c3 75 3d
       -0.21503285 -0.07172338 -0.056607313 0.060000937
000390 f4 2f 55 3d 40 4d 33 be 35 41 47 bd 3f ac a6 be
       0.052047685 -0.17509937 -0.04864617 -0.32553288
0003a0 b7 c4 dd bd cd c6 86 be 1c ca 3d bd 6a 3c d8 3d
       -0.10828536 -0.26323548 -0.046335325 0.10558398
0003b0 7a 10 de bc 82 14 eb 3d a2 e6 2c 3d bf 1b 07 be
       -0.027107466 0.11478521 0.042212136 -0.13194178
0003c0 b8 39 0f 3e 30 1f 2a 3d ca 94 84 be 0f e7 c8 3d
       0.13986862 0.04153365 -0.25894767 0.09809696
0003d0 48 1c 64 3d a7 2d aa bd 8e 48 f4 bb 3b fa 2c bb
       0.055691034 -0.08309489 -0.0074549383 -0.0026394266
0003e0 f8 30 02 3c c4 57 53 3d f5 07 82 3d b0 c9 77 3b
       0.007946245 0.05159737 0.06349174 0.0037809424
0003f0 33 ae 9d bd 92 21 fd bc b7 2a 70 3c 8e b0 2d be
       -0.076992415 -0.030899797 0.0146586215 -0.16961882

shrinking.0.bias f4 [12]
000000 4d bd c6 bc 83 e5 99 bd da 3e 3e bd b2 d7 a8 bd
       -0.024260188 -0.07514479 -0.04644666 -0.082442656
000010 25 d3 6c 3d 7b c0 8f bd 99 a1 8b bd f1 c7 39 3c
       0.05781855 -0.070191346 -0.06817932 0.011339174
000020 37 01 95 3d 83 d5 d5 3b 96 96 d8 3c 11 7a 05 bd
       0.07275622 0.0065256967 0.026438992 -0.032587115

mapping.0.0.weight f4 [12, 12, 3, 3]
000000 ec 80 6b 3d ee dc f4 bc e0 25 e6 bc 15 e2 34 3c
       0.057495996 -0.029890504 -0.028094232 0.01104023
000010 82 d7 0d bd a5 1a 86 bd 16 5d 0a bd 62 33 01 3e
       -0.034629352 -0.06548051 -0.03378018 0.12617257
000020 73 e8 06 3d fc 0e bb 3d df 05 7b 3d 6f e3 ab bc
       0.032936525 0.091337174 0.061284896 -0.020982472
000030 5b 7b a3 3b 54 dd 4f bb f4 2d 24 3e 93 36 91 be
       0.0049890704 -0.0031717615 0.16033155 -0.2836195
000040 f8 44 44 be 04 6d b2 3d d7 73 9f 3d 59 80 db 3d
       -0.19166934 0.08712199 0.077857666 0.1071784
000050 83 39 fc 3d 2b 35 c1 bd 26 56 8b 3d 88 dc fd 3d
       0.12315657 -0.09433969 0.06803541 0.123955786
000060 93 ed 9a be 5e 8b 21 be df 4f c8 bc 14 1a 5d 3d
       -0.3025938 -0.1577582 -0.024452148 0.05397995
000070 2d e9 83 3d b5 2d 79 bc 03 26 f8 3c c6 4e b8 3c
       0.06440959 -0.015208651 0.030291563 0.0224985
000080 67 65 fb 3c 92 c5 dd bc d6 18 5b bd 07 95 f0 bd
       0.030688 -0.027071748 -0.053490482 -0.11747175
000090 1c ce 80 3d 61 56 a9 bd ff fe 57 3d 19 bc 93 3d
       0.06289312 -0.082684286 0.052733418 0.07213611
0000a0 07 1b 31 3d 94 e3 88 bd 91 cb d2 bc 20 22 17 3d
       0.043238666 -0.06684032 -0.025731834 0.03689778
0000b0 66 6d 96 3d 2e e5 fa bc 14 3a 97 3d 16 ba a8 bd
       0.07345085 -0.03062686 0.073841244 -0.08238618
0000c0 56 89 82 bc 45 47 b4 3d 8f 36 94 3c 3e 1e 84 bc
       -0.015934628 0.08802656 0.018092422 -0.016127702
0000d0 65 9c f4 bc b4 f4 76 bd b7 fa 18 bd d9 24 27 3e
       -0.029859731 -0.06029196 -0.037348475 0.1632265
0000e0 32 4a a4 3d 02 2c d0 bd 39 22 83 3d 90 b9 04 3e
       0.08021964 -0.10164644 0.06403012 0.12961411
0000f0 2e 0a c8 bd 77 8b d5 bd 61 c6 a9 bd 7e 91 a6 bd
       -0.097675666 -0.104269914 -0.08289791 -0.08133219
000100 f0 c3 9b bd 0c a1 11 be 9c 65 b4 bd c5 b1 66 be
       -0.076057315 -0.14221591 -0.08808443 -0.22528751
000110 7c 5c 0d be 6e 48 b4 bd c8 d2 45 be b3 50 f1 bd
       -0.13804811 -0.08802877 -0.19318688 -0.1178297
000120 d9 60 7d 3d 9e 79 46 bb 52 22 92 3d 8a e7 31 bd
       0.06185994 -0.0030284892 0.07135452 -0.043433703
000130 c3 50 db 3b 95 8c 8b 3d 68 f1 21 bd 6b 12 8e 3d
       0.006692977 0.06813923 -0.039536864 0.06937107
000140 9e 53 ea bc 13 d6 7e 3c a6 67 5c bb d8 94 04 be
       -0.028604325 0.015553969 -0.0033631115 -0.12947404
000150 5a bd 2f 3d 15 e4 66 3d 7a 7c d4 bc d8 45 cb bd
       0.04290519 0.05636986 -0.025938261 -0.09925431
000160 56 64 2e bd 14 d1 00 3d 66 22 51 3e 95 e6 09 3e
       -0.042576157 0.031449392 0.20423278 0.13466866
000170 49 8a e5 3d 42 f8 1f 3e c1 38 95 3e b8 b3 5e 3e
       0.112080164 0.15622047 0.29144862 0.21748245
000180 1b ce 01 3e 9f 37 c2 3d 30 ca da 3d af b6 6f bd
       0.12676279 0.09483265 0.106830955 -0.05852383
000190 54 ea 36 bd f7 7e a0 3d 08 92 a1 bd 6f 91 f9 bc
       -0.044657066 0.078367166 -0.078891814 -0.030464856
0001a0 d7 fa 71 3d fa 25 3c 3d 98 84 18 3c 9d 25 bb 3d
       0.05907711 0.045934655 0.009308957 0.091380335
0001b0 95 e9 87 bd b5 f3 9e bd f5 ed cc 3c 27 e8 c9 3d
       -0.06636349 -0.07761327 0.02501581 0.09858733
0001c0 c9 d3 9c 3d 61 eb 84 bc 5f 68 90 3d 21 77 ec 3d
       0.07657582 -0.016225519 0.07051157 0.115461595
0001d0 03 b6 a6 bc 25 4e 3b 3a 38 87 88 bd a8 22 bb 3d
       -0.020350462 0.00071451283 -0.06666416 0.091374695
0001e0 d3 63 07 be 7f df 1f bd f7 b0 e1 bd 4f 59 16 bd
       -0.13221674 -0.0390315 -0.110200815 -0.036706265
0001f0 8e 85 71 be ba 49 db bd 8e 91 dd 3d 26 8c 53 3e
       -0.23586103 -0.107074216 0.10818778 0.20658931
000200 0e 45 5d 3e 0b de d2 3b 02 38 e2 bd 77 3c 87 bc
       0.21608374 0.006435161 -0.11045839 -0.016508324
000210 ba f7 ea bd 00 30 e3 bd 49 be 7b bd 0a f0 18 3c
       -0.11473031 -0.1109314 -0.061460767 0.0093345735
000220 fc 87 cc 3c bf e4 59 3d 8d 26 05 bd 78 e1 39 3d
       0.024967186 0.053196665 -0.032507468 0.04538104
000230 bb 97 d6 3c b9 02 bb 3c e2 79 a7 3d 01 b9 47 3e
       0.026195398 0.022828447 0.08177544 0.19504167
000240 e8 12 08 3b 25 48 55 3c 1c ef 55 bd 41 27 99 bc
       0.0020763222 0.013017689 -0.052229986 -0.018695476
000250 e9 54 07 bd 13 ce 43 3c ac bc 23 bd fd 88 35 bd
       -0.03303996 0.011950987 -0.039974853 -0.044320095
000260 04 e7 68 3d c5 72 70 bd 7e 7e cf bb f2 84 07 bd
       0.05686094 -0.058703203 -0.0063322177 -0.03308577
000270 95 cf 83 3d 86 2e 00 3e b6 12 6e 3c 81 7a 3f 3d
       0.064360775 0.12517747 0.014530828 0.04674769
000280 b7 c6 f7 3d 2d 6a 92 3d 6a 68 20 bd 1d 7f 97 bc
       0.12098449 0.07149158 -0.039162077 -0.01849323
000290 74 90 14 bd af 28 3e be 1b 29 37 be d7 ad 65 be
       -0.036270574 -0.18570207 -0.17886774 -0.22429596
0002a0 1c 4e ca 3d a7 bb c5 3d 8f 82 ab 3c 14 0b 2d be
       0.098781794 0.096549325 0.020936279 -0.16898757
0002b0 c1 ad c2 be c9 65 86 be a5 70 25 be 97 2c 5b be
       -0.3802319 -0.2624953 -0.16156252 -0.21403728
0002c0 9f 5b 7b be a1 91 37 be 47 0c 24 be 0c 96 5d be
       -0.2454667 -0.17926647 -0.16020308 -0.2163927
0002d0 9f 3b 23 bd 15 97 24 3d b7 cc 10 3e 7f 16 7b bd
       -0.03985178 0.040183146 0.14140593 -0.06130075
0002e0 be 43 1c be 02 e8 b1 bd 4b 55 72 be ba bb 24 be
       -0.15260217 -0.0868683 -0.23665349 -0.16087237
0002f0 3a 30 b1 be 8c 18 05 be 3c c8 f0 bd 49 b4 20 be
       -0.34607106 -0.12997645 -0.11756942 -0.15693773
000300 73 f5 4f be b4 1c 43 be d9 54 02 be 8e 1f a5 bc
       -0.20308475 -0.19053918 -0.1272768 -0.020156648
000310 68 69 24 be 39 48 65 be b7 a9 33 3d ed 7d fc 3c
       -0.16055834 -0.22390832 0.043863025 0.030821765
000320 42 8c 2e 3e 5d 49 eb 3d cf 87 b8 bc f7 9c 06 bd
       0.17045692 0.11488602 -0.022525696 -0.032864537
000330 0e 33 33 bd e8 60 ce bd 5e 13 23 be f9 ae b1 bd
       -0.04374986 -0.10077077 -0.15925357 -0.086759515
000340 f2 bd 34 bd 89 c6 16 3d 4b 0c 9b 3d 7d ec eb ba
       -0.04412646 0.03681043 0.07570704 -0.0017999556
000350 ce c6 1f bc 60 1d 6b bc 1b 30 0d 3a ab a7 44 3d
       -0.009751989 -0.014350265 0.00053858914 0.048011463
000360 c8 e7 51 bd 3f d3 60 3d 0b 78 92 3d 24 28 9f 3d
       -0.051246434 0.05488896 0.07151803 0.07771328
000370 af 7c 36 bc 61 df 92 3d 99 4d 39 3d a7 23 a9 3d
       -0.011138125 0.071715124 0.04524002 0.08258753
000380 e2 50 ef 3d 7e 82 b5 3d 99 32 63 bd a2 1f 0d 3d
       0.11685349 0.0886278 -0.055468176 0.034453996
000390 61 15 72 3d b3 ed 89 3d a3 ed 8f 3d 4a 4f 4d bd
       0.05910242 0.06734791 0.070277475 -0.050124444
0003a0 e6 93 45 bc c2 58 e2 3d ba dc 14 3e df da 39 3d
       -0.0120591875 0.110520855 0.14537326 0.045374747
0003b0 ab 01 ce bd a4 61 00 3e f5 a5 c0 3d a7 22 b6 bd
       -0.10058912 0.12537247 0.09406654 -0.08893328
0003c0 b8 22 17 3e 43 a2 85 bb 1d 9f 9f 3c 04 95 ab bc
       0.14759338 -0.004078181 0.01948505 -0.02094508
0003d0 8e b6 0f bd 1f 0c 91 bc 3f 8a ed bc 59 ad 2f bd
       -0.035086207 -0.017705975 -0.028996585 -0.042889927
0003e0 ce 62 23 3d ad a0 1e bd 4d d2 86 3d e3 56 c6 bb
       0.03988915 -0.03872745 0.065830804 -0.006052838
0003f0 7d 38 4f 3d 5c 6b 69 3d 70 e5 3f bd ab 55 87 bc
       0.05059098 0.05698715 -0.046849668 -0.016520342

mapping.0.0.bias f4 [12]
000000 f8 89 cb bc e9 38 c7 bc 73 59 be 3c 21 5f 0a bd
       -0.024846062 -0.024319129 0.023236012 -0.03378213
000010 0c 97 8e 3b 9b a2 a5 bc 74 a0 45 bd 0c 5d 88 bd
       0.0043515023 -0.020219138 -0.048248723 -0.06658372
000020 fa c1 2d bd bb 29 0a 3d ee ec 0e 3c 72 69 a1 3a
       -0.04242132 0.033731204 0.008723481 0.001231475

mapping.1.0.weight f4 [12, 12, 3, 3]
000000 86 2f c2 bd 99 9a b7 3c 9e b0 f9 bd 7e f4 88 bd
       -0.094817206 0.022412585 -0.1219189 -0.06687258
000010 aa 62 7d 3d 20 8a cc bb 57 dc 62 3d 7b c3 0d bd
       0.06186167 -0.0062420517 0.055385914 -0.034610253
000020 3b 25 8f bc 25 19 a8 bd c0 fe ba bd 76 8d 89 3d
       -0.017473808 -0.08207921 -0.09130621 0.06716435
000030 10 87 57 3d 91 fd b0 3d 65 d8 04 3e 51 3a 41 3d
       0.05261904 0.08642114 0.12973173 0.047174755
000040 c6 5e c8 3c 87 53 5c bc 49 3d b8 3d fd 66 b0 3d
       0.024459254 -0.013447649 0.08996064 0.086133935
000050 95 f1 05 3e 2d ac 09 bb 27 5d 11 be 17 3a 19 3e
       0.13080437 -0.0021007166 -0.14195691 0.14963566
000060 19 9e 26 bd c4 c1 3e bd 27 a8 98 bb 78 9e 90 bd
       -0.040678117 -0.046571508 -0.004658717 -0.070614755
000070 34 fe 7d bc b9 90 08 be 9b 31 55 3d 98 d9 79 bc
       -0.015502501 -0.13336457 0.05204926 -0.015249632
000080 cd c2 9c 3c 67 29 9c bc f0 e9 8e 3d e9 e4 19 3e
       0.019135857 -0.01906271 0.06978214 0.15028729
000090 f1 af 9c bd ae 38 48 be f0 1e 3c be 12 ce 9e 3b
       -0.07650746 -0.19552872 -0.18371177 0.004846343
0000a0 b2 a7 a4 3c 7f 6f 13 be ba 7e 41 bd 01 2a 86 3d
       0.020099495 -0.14398001 -0.047239996 0.0655098
0000b0 31 1f 0f 3e 08 85 30 3d b3 d4 13 be 8a f6 89 bd
       0.13976742 0.04309562 -0.14436607 -0.06736477
0000c0 af 28 23 3d db d3 08 be 21 91 2b 3c 54 81 0d bd
       0.03983372 -0.13362066 0.010471613 -0.034547165
0000d0 73 32 d4 bd 3d 4f 79 bd f9 f4 93 bd ae 79 08 bd
       -0.10361185 -0.060866583 -0.07224459 -0.033319168
0000e0 12 f7 a6 3d b6 60 81 bd ae 0c 9f 3d f2 30 08 bd
       0.08152594 -0.06317274 0.0776609 -0.033249803
0000f0 cb 9b 68 3b d4 54 c1 3b ac 9d 35 be 4c b1 f0 3d
       0.003549325 0.005900005 -0.17735928 0.11752567
000100 c7 e7 46 bd 67 dc 11 bd 5f 42 e6 3d e1 0d 82 bd
       -0.048560884 -0.035610583 0.11243128 -0.063503034
000110 ba fe 15 bc 94 46 52 bd 15 7d 52 be 78 72 84 bd
       -0.00915497 -0.05133684 -0.20555528 -0.06467146
000120 fa e3 87 bc 7d 59 d1 bd e2 e5 66 3d d7 15 1b 3d
       -0.0165882 -0.10222147 0.056371577 0.037862625
000130 2f 8b 7b bd dd 95 59 bd cc 2e cb bd 22 ac be bd
       -0.061412033 -0.053121436 -0.09921035 -0.093101755
000140 00 5d 4c bd d3 10 8a 3d ae 2a 9c bd b5 15 31 3e
       -0.04989338 0.0674149 -0.07625328 0.17293437
000150 62 8c 9a bd 1b a4 02 be b8 3f b2 3c 60 d4 88 bc
       -0.07546307 -0.12757914 0.0217589 -0.01670283
000160 ba 78 b0 bc b2 9e 20 3e fb 15 a0 bd 96 de 58 bd
       -0.021541942 0.15685537 -0.078166924 -0.05294665
000170 95 40 27 bc 0e 77 02 3e 8c b3 d6 3d c2 18 fb 3b
       -0.010208269 0.12740728 0.104834646 0.0076628635
000180 e9 9c 26 3e 93 18 b1 3c 02 36 b1 3d f9 4a 30 be
       0.16270794 0.021618163 0.08652879 -0.172161
000190 f0 d3 2b be 5d 9f 2b bd 86 f3 c8 3c 67 df 1e be
       -0.16780066 -0.041900028 0.024530184 -0.15514909
0001a0 f2 7d ca bc e5 ec d7 bc fb cd 00 bd 35 a8 7d 3d
       -0.024718259 -0.026358077 -0.03144644 0.061927993
0001b0 5b f5 42 bd 23 bb 38 3a 2e ca 0c 3d 06 43 a0 bd
       -0.04759727 0.00070469285 0.0343725 -0.07825284
0001c0 14 32 09 bd 78 7f e5 3d a8 13 55 bd d6 91 0f 3d
       -0.033495024 0.11205953 -0.0520207 0.03505119
0001d0 75 6a 60 bc b0 e0 c2 bd 98 e9 a9 bd b9 eb 8f 3d
       -0.013697256 -0.09515512 -0.082965076 0.070273824
0001e0 8a bf 5d 3c 1b b6 ec 3d 38 b8 02 bd 8d 0d 97 3d
       0.013534436 0.11558171 -0.031913966 0.073756315
0001f0 96 46 0b bd 12 e3 95 bd fc 1f d1 3d 72 40 d7 bd
       -0.034002863 -0.07318701 0.10211179 -0.10510339
000200 fe 06 5e bd 07 60 06 3e d5 cd d6 bd 1c d8 9b bd
       -0.054205887 0.13122569 -0.10488478 -0.07609579
000210 47 c2 30 3e ab c1 bf 3d 2d ca 26 bc cd e8 80 be
       0.17261611 0.09363111 -0.010180038 -0.25177613
000220 57 7d 20 be 22 21 7b be b7 e1 f6 bd 51 49 95 be
       -0.15672813 -0.24524358 -0.120547704 -0.29157498
000230 16 15 94 be 0a 94 f8 3c a1 59 93 3d 3b f7 08 bc
       -0.28922337 0.030344028 0.0719483 -0.008359726
000240 08 1f 06 bc eb 21 34 3d 30 76 18 3e 40 5b 2f 3d
       -0.008186109 0.04397766 0.14888835 0.042811632
000250 11 93 1f 3d 81 71 0c 3e 31 90 d2 3c 9f 9a ce bd
       0.038958613 0.13715173 0.025703521 -0.100880854
000260 0d 1a 0c bc b0 2f 2a bd 1f 55 cb 3b 93 be 85 3d
       -0.008551133 -0.041549385 0.0062052156 0.0653049
000270 67 40 08 bd 64 75 31 bd 28 dc 34 bc c1 ce ce 3c
       -0.033264544 -0.043324843 -0.011038817 0.025245072
000280 67 c8 f5 bd 49 ac 91 bd 70 c4 51 3d 3f c6 b9 3d
       -0.12001114 -0.07112939 0.051212728 0.090710156
000290 06 c7 8c 3d 34 84 38 3d 87 95 17 bd 46 4f f2 b6
       0.06873898 0.045047954 -0.037007835 -7.2213907e-06
0002a0 04 ee 9c bd 38 c6 8a bd ce 81 16 be 94 c2 24 bd
       -0.076625854 -0.067760885 -0.14697954 -0.040224627
0002b0 91 a0 89 3c 77 10 3d bd 82 72 7a 3d fe 50 1a be
       0.016800197 -0.04615828 0.06114436 -0.15069959
0002c0 82 92 32 be 5d f4 8c bd cf b8 78 3d 80 b5 e0 3d
       -0.17438701 -0.06882546 0.060723122 0.109721184
0002d0 eb 65 61 bc 8d f6 2a bd 45 c0 57 3d 85 c6 58 3d
       -0.013757209 -0.041739035 0.052673597 0.052923698
0002e0 2c f3 90 3b 10 73 15 bc 2e db 9d 3d 33 80 21 3c
       0.0044235196 -0.009121671 0.07707821 0.009857225
0002f0 4b 93 0c bc 31 e0 cf 3c 38 46 a3 bd 79 f1 0b 3d
       -0.008580039 0.025375457 -0.079723775 0.034165833
000300 95 42 19 3d c2 81 61 bd b1 f4 fe 3d d6 a1 d3 3d
       0.037417013 -0.055055387 0.12449015 0.10333602
000310 22 2e 9f bc 43 25 3b 3e 61 6b 0c be 6a 5c 05 3d
       -0.019431178 0.18275933 -0.13712837 0.032558836
000320 46 77 d2 bd 17 31 38 bd 0c e9 30 bc 1a fe f1 3a
       -0.10276656 -0.04496869 -0.01079775 0.0018462569
000330 17 2a 16 3d 9a ef 33 3d 44 5e 0a 3e fe 40 e8 bd
       0.036661234 0.043929674 0.13512522 -0.11340521
000340 4c 06 bf be 56 a4 85 be b3 da a7 bc 1b e9 da be
       -0.37309492 -0.2610194 -0.020490026 -0.4275597
000350 4f 88 f7 bd cb 32 3a 3e 67 34 6d be d8 b4 bf 3c
       -0.12086546 0.18183438 -0.23164521 0.023401663
000360 ee 6f cd 3d 95 c8 f9 3d 97 41 95 bb e1 05 bb 3d
       0.100311145 0.12196461 -0.004554938 0.09131981
000370 08 c9 04 3d d3 90 d4 3d 1e b2 c9 bd 6a 5d 27 3e
       0.03241828 0.103791855 -0.09848426 0.16344228
000380 9d ef 90 bd 2b b0 30 bd d7 15 cd 3d 5c ba 42 3d
       -0.070769526 -0.043136757 0.10013931 0.047541007
000390 37 5d bb 3d 3a 60 98 3d 59 70 1d 3e 4c b0 90 bd
       0.09148639 0.07440229 0.15374888 -0.07064876
0003a0 e8 7d 1a 3e 86 54 d5 3d 19 c8 ca bc 0c 77 f1 bc
       0.15087092 0.10416512 -0.024753617 -0.029475711
0003b0 e9 36 5b be 1d f6 3f bd fa 2d 9f bd 4b 48 fe bd
       -0.21407665 -0.04686557 -0.07772441 -0.124161325
0003c0 0d 8a 37 be 11 5e f2 3d 03 71 3f bd aa df fb bd
       -0.17923756 0.11834348 -0.046738636 -0.1229852
0003d0 dc 90 85 be da 37 50 be 8a e1 29 3e 8d 5c 97 3e
       -0.2608708 -0.20333806 0.16589943 0.29562798
0003e0 8e 78 8c 3e ce dc 06 be f7 c7 22 bd 76 e1 35 be
       0.27435726 -0.13170168 -0.039741483 -0.17761788
0003f0 af 40 06 be 37 de db bd 20 b0 83 bd fe a0 4e 3e
       -0.13110612 -0.107357435 -0.064300776 0.20178601

mapping.1.0.bias f4 [12]
000000 51 9f 9a bc b2 d6 03 bd 76 2b f7 bc a9 d3 ff bc
       -0.018874796 -0.03218717 -0.030172091 -0.031228857
000010 8d cf d0 bc 7f 48 46 3d f8 92 02 bd 47 61 ac 3c
       -0.025489593 0.04840898 -0.03187844 0.02104248
000020 70 29 b5 3b 84 a1 05 bc df 41 d0 bc fa 35 6a bb
       0.0055286214 -0.008156184 -0.025422035 -0.003573774

mapping.2.0.weight f4 [12, 12, 3, 3]
000000 22 95 d0 3b ac c6 29 bd 9e 01 77 3d 3b 6e 55 3d
       0.0063654343 -0.041449234 0.060304277 0.052107077
000010 92 92 95 3d 5c ef 11 3d 30 bf 4c bd 17 b3 a3 3d
       0.07303347 0.03562866 -0.049987018 0.07993143
000020 d3 df 4d bc a8 94 9d 3d cf b5 6e 3c 76 56 53 3d
       -0.012565571 0.076943696 0.014569714 0.051596127
000030 77 22 9a bd 5f e5 8c bd 5f af 17 bd d9 61 5c bd
       -0.07526105 -0.068796866 -0.03703248 -0.053804252
000040 ba af 13 bc ea 36 e0 3b d5 18 84 bc f7 2f 54 bc
       -0.009014064 0.0068424838 -0.016125122 -0.012950889
000050 c1 d3 74 be 82 c9 31 3e 60 6a 38 3e 56 7e 67 bd
       -0.23908903 0.17362025 0.18009329 -0.056516968
000060 9d 4d a3 3d 16 a8 07 3e c9 0b 14 be 89 02 03 3c
       0.07973788 0.13247713 -0.1445762 0.00799621
000070 c7 c3 61 bd 39 ff 1a 3c 43 a7 ba 3c 5d d5 b1 3d
       -0.05511835 0.009460264 0.022784835 0.08683274
000080 1f ac 06 bc 6e 24 52 bb 7a 39 2a 3d 7a 29 a0 bd
       -0.008219748 -0.003206517 0.04155872 -0.07820411
000090 b2 e0 fa 3c 74 40 d7 bc f7 60 ef 3d 6d ec 88 bd
       0.030624721 -0.02627585 0.116884165 -0.0668572
0000a0 8b 0a b1 3d 2e 7d 34 3d 8a 30 56 3d 10 f3 c0 3d
       0.08644589 0.044064693 0.052292384 0.094213605
0000b0 2c cb 93 3d 00 bc 35 3e 7f d4 8f 3d a7 7e af 3d
       0.07216486 0.17747498 0.07022952 0.08569079
0000c0 24 65 41 3c 57 1a 94 3b c0 16 c8 bc 68 3c ed 3d
       0.011803899 0.0045197415 -0.02442491 0.11583787
0000d0 4b 75 ed 3d d6 87 03 3e d0 33 54 3d 29 2a 0c bd
       0.115946375 0.12844786 0.051807225 -0.034219895
0000e0 98 22 1e 3a c8 5e 19 bd 18 24 37 3d 43 94 79 3d
       0.00060323766 -0.037443906 0.044712156 0.06093241
0000f0 c1 16 12 3d 4c 91 1c 3c 3d 22 ed bd 34 c1 7b 3c
       0.03566623 0.009556126 -0.11578796 0.015365887
000100 1b a8 97 bd 01 f6 a1 3c a8 fb db 3d 09 4c 64 3b
       -0.074051104 0.019770624 0.10741359 0.003483536
000110 d8 d1 25 3c 86 d1 df 3d 42 f8 fd 3d 21 e0 3a bb
       0.010120831 0.10928635 0.12400867 -0.002851494
000120 0c da d6 3d 5c 1f 90 3c 9e 4c c4 3c d4 b5 80 3d
       0.10490808 0.017593078 0.023962315 0.06284681
000130 5a cb 8d 3d 1f 34 8d 3d 85 ae 8b 3d 3d 07 69 3d
       0.06923552 0.06894707 0.06820396 0.05689167
000140 5b 6d 58 bc ef 49 00 bd 13 ed 24 be bc a0 ff bd
       -0.013209666 -0.03132051 -0.16106062 -0.124818295
000150 73 bc 27 be ee b0 1b be f3 6d e5 bd a2 17 1c be
       -0.16380481 -0.15204212 -0.11202612 -0.1524339
000160 80 fb 30 be f0 4d 4d be 20 0c 9b bd 86 29 ba bd
       -0.1728344 -0.20049262 -0.07570672 -0.09089951
000170 52 85 37 bd 65 0a 07 3d 54 b0 b6 3c 45 9b aa 3d
       -0.04480488 0.032968897 0.022300877 0.083303966
000180 9c 1b e9 bd 56 6b 62 bd 87 f3 74 3c 41 fc 66 3d
       -0.11382219 -0.055278145 0.01495064 0.05639291
000190 fa 91 26 3e 0e 14 fa 3d f5 29 f9 bc 8a 49 52 3d
       0.16266623 0.122108564 -0.030415514 0.051339664
0001a0 09 59 bc 3d ec 38 44 3d 40 f5 38 3c 14 c3 c7 bd
       0.091966696 0.047905847 0.011288941 -0.09754005
0001b0 0e 37 15 3e 58 c7 90 3d b9 ab 4e 3d 8b c0 cf 3d
       0.14571783 0.07069272 0.050456736 0.101441465
0001c0 85 b9 95 3d 96 e8 ab 3d 90 a2 e8 3c f1 3b e4 3d
       0.07310776 0.083939716 0.028397828 0.111442454
0001d0 6b 66 2f bc f8 bc d9 3d 4b 07 23 3d bf 69 79 3d
       -0.010705571 0.10631746 0.039801877 0.060891863
0001e0 9c 8a 11 3d b0 12 b1 bd e1 22 cf 3d f8 a4 f6 3d
       0.03553258 -0.086461425 0.101140745 0.12043184
0001f0 95 82 5f bd 93 1a 55 bd 79 00 b1 3c 0c da 19 3d
       -0.054567892 -0.052027296 0.02160667 0.03756146
000200 20 4c e1 3c 7d bf 09 3e 3f 7c 2a 3e 92 c2 8d bc
       0.02750212 0.13451953 0.16648959 -0.017304692
000210 bc bd da bd 9d 24 cd bc af 37 7f bd 6d 08 13 3d
       -0.1068072 -0.025041873 -0.062308963 0.035896707
000220 37 6f 2b bc bd 4d 72 3d a7 9a 1d 3c c9 b6 9b 3d
       -0.010463527 0.05915617 0.0096193915 0.07603223
000230 20 05 9d 3d aa 08 15 3c 5a 01 e9 bc 3e a5 5c 3d
       0.07666993 0.009096304 -0.028443027 0.053868525
000240 b6 f7 bc 3d a9 c6 69 bc 17 a8 60 3d 2d 1c 9e bd
       0.092269346 -0.014268556 0.054847803 -0.07720218
000250 18 2e 04 be 12 cb 65 bd 48 e7 51 bd 27 1d 06 bd
       -0.12908208 -0.056101866 -0.051245958 -0.032742646
000260 a7 b5 cc 3d a6 72 54 bd 17 83 2f be 0e dd e9 bd
       0.09995585 -0.05186715 -0.1713985 -0.11419116
000270 33 70 75 bd ce 5f 37 bd a7 2e c9 bd e8 52 da bd
       -0.059921455 -0.0447691 -0.09823351 -0.10660344
000280 dd 5c 7e bc 9d 81 6f bd 96 22 1e 3e d5 ff 02 3e
       -0.01552507 -0.05847322 0.15442881 0.12792905
000290 84 f7 8d 3c af 48 75 3d 22 26 e3 3c 21 ba 02 3e
       0.017329939 0.05988377 0.027728144 0.12766315
0002a0 18 9d 5d bc 03 9f 00 3d 3f c9 32 3e 36 75 9d 3b
       -0.013526224 0.031401645 0.17459582 0.0048052324
0002b0 ad 82 ca bc ad 72 b7 bd 00 b8 8a bd fe 85 9c bd
       -0.024720514 -0.089574195 -0.067733765 -0.076427445
0002c0 6f d5 c8 bb 67 e1 1f be bd 8d 19 3c fe 89 1b be
       -0.006128959 -0.15613328 0.009372172 -0.15189359
0002d0 1f 3d d7 bc 3d f7 87 3d af c2 8f bd d1 c6 90 bd
       -0.026274262 0.06638954 -0.07019555 -0.07069171
0002e0 40 64 80 3c 0e 8c ea bd b3 5e 4a bd 92 c7 54 3d
       0.015672803 -0.114524946 -0.04940672 0.051948138
0002f0 39 27 50 bd 5e 97 c5 3d 0e 27 d7 3d 78 99 c3 3d
       -0.050818656 0.096480116 0.10505496 0.09550756
000300 aa 4e d3 bd 4f 4d d7 3d 4c 76 b9 bc a0 23 50 3d
       -0.10317738 0.10512792 -0.022639416 0.050815225
000310 71 dc b6 bc 65 f2 77 3c 9e e5 14 bc f1 c7 0f bd
       -0.022321912 0.015133475 -0.009087948 -0.03510279
000320 85 89 b9 3c d1 01 ec bd d4 97 06 be 55 02 e2 3d
       0.022648582 -0.11523784 -0.13143855 0.11035601
000330 b4 3a 1e bc 02 e9 9f 3d 6a 2b 33 3d ac 68 87 3d
       -0.009657551 0.078081146 0.043742575 0.066117615
000340 2e 09 a2 3d 10 7a 1c 3e 81 24 c5 ba 80 39 05 3d
       0.07911907 0.15280938 -0.0015040786 0.03252554
000350 e1 9c 42 3d f0 bb a7 3c 85 72 12 bc 08 94 48 bd
       0.047512893 0.020475358 -0.008938436 -0.0489693
000360 4e cd d1 bd c3 81 a8 3c 6a 91 40 3c cd 3e 30 3d
       -0.10244237 0.020569688 0.011753419 0.04302864
000370 8e 1b 01 b8 1d 26 bd 3c 16 7c a4 ba 69 8a bf 3c
       -3.078166e-05 0.023089463 -0.0012549188 0.023381429
000380 9a d6 0b 3e 84 34 0b be 1b 6e dc bd 7b de 33 bd
       0.13656083 -0.13594252 -0.107631885 -0.043913346
000390 43 75 86 3d 86 10 97 bd 93 8d db bd 49 9d be bd
       0.06565335 -0.073761985 -0.107203625 -0.093073435
0003a0 3e 50 0d 3d 8f 9d aa bc a1 7f 44 bc ca 19 e3 bd
       0.034500353 -0.020827083 -0.01199332 -0.11088903
0003b0 ba e3 23 bc 7e 8a bc bd 5d 06 9d bc 99 ad 5c bd
       -0.010003025 -0.09206103 -0.019168073 -0.053876493
0003c0 0f 68 af 3b 65 57 d1 3d 03 7d 93 3c 45 ca cb bd
       0.005352981 0.10221747 0.018003946 -0.09950689
0003d0 c8 5a 37 3d 56 b5 cb bd 5a 40 18 3d de ef 66 bd
       0.04476431 -0.099466965 0.037170745 -0.0563811
0003e0 61 04 02 ba d8 08 b9 3c 0c bd 07 bd b9 a0 df bc
       -0.0004959759 0.022587225 -0.033139274 -0.027298318
0003f0 48 d4 ac bd be b1 55 3d dd 9e ba bd c2 27 f0 3d
       -0.08438927 0.05217146 -0.09112332 0.11726333

mapping.2.0.bias f4 [12]
000000 ea 8b 7e bc 39 e0 03 3b f1 7d 11 bd 03 eb 39 bd
       -0.015536288 0.002012266 -0.035520498 -0.04539014
000010 80 ca 77 bc bb 92 e0 bc f2 ea c2 bc 45 9b 93 bd
       -0.015123963 -0.027413717 -0.023793671 -0.0720735
000020 d1 16 b8 bc 8a 8c 88 3d f1 bb 2f 3b d0 b6 9a bd
       -0.022471817 0.06667431 0.0026814903 -0.075544

mapping.3.0.weight f4 [12, 12, 3, 3]
000000 13 84 3f be 44 f0 b0 bd da f7 06 be 5e 32 db bc
       -0.18702726 -0.08639577 -0.13180485 -0.026757415
000010 f3 0e 38 bd 18 7c 69 bd 92 4a 98 bd de 9f a0 bd
       -0.04493613 -0.05700311 -0.07436098 -0.07842992
000020 03 cf 46 bd 53 00 e4 3c 7d b1 f8 b7 84 e3 b4 3d
       -0.048537266 0.027832186 -2.9646553e-05 0.08832458
000030 96 da 8a 3c c1 7d 63 bd 00 30 71 bb 99 a8 19 bd
       0.016949933 -0.05553985 -0.0036802292 -0.037514303
000040 b5 46 80 3d f4 36 4e 3d 2c ba 53 3c e8 08 00 3e
       0.06263486 0.050345376 0.012922805 0.12503397
000050 da ea 2a bd 32 f4 03 3e 58 38 a5 bc de 03 05 bd
       -0.04172788 0.12886122 -0.020168468 -0.03247439
000060 3d cc a8 bc 7f 61 d1 bc d1 13 fe 3c 22 eb ab 3b
       -0.0206052 -0.025559185 0.031015309 0.005246536
000070 6a 4b 80 3d 97 e5 82 ba 72 45 ab bd f3 e2 9a bd
       0.06264384 -0.0009986636 -0.08362855 -0.075628184
000080 5c c2 27 bd 65 5b c5 bd f6 42 b0 3d 48 c3 62 bd
       -0.04095684 -0.09636573 0.08606522 -0.055362016
000090 61 c4 e0 3d 9d 5e 82 3b fa 1a cd 3d 8b 91 15 bd
       0.10974956 0.003978564 0.10014911 -0.036515754
0000a0 3f d5 a0 bb 5a 49 d2 bc 81 ed 33 bc 3e 02 ae 3d
       -0.0049082334 -0.025669742 -0.010981918 0.084965214
0000b0 cf 61 ba 3d 7b c6 a2 3d 14 ef 30 bd 9b 52 2f 3d
       0.09100687 0.079480134 -0.043196753 0.042803388
0000c0 6c 05 32 bd ea 98 12 3e 0c 22 ed 3d 21 64 e0 bc
       -0.043462202 0.14316145 0.115787596 -0.027391495
0000d0 96 3d 06 bc ca 67 ba 3d 74 83 6b 3d 4a 39 bf bb
       -0.008193394 0.091018274 0.05749841 -0.005835687
0000e0 51 05 04 3c 44 e4 78 3d ef 74 1a bd cc 95 d3 3d
       0.008057908 0.060764566 -0.037709173 0.10331306
0000f0 11 af 6a 3c 83 79 c4 bb 46 e3 06 3d 8f a2 a7 3d
       0.014323966 -0.0059959306 0.03293159 0.081853025
000100 a6 1e ca 3c db 3c 5a bd e1 dd 55 bd 62 97 08 3d
       0.024672817 -0.053280693 -0.052213553 0.033347495
000110 ce 6a e7 3d 7c 19 eb 3c 32 52 bc 3d b3 78 95 3d
       0.11299668 0.028698675 0.09195365 0.07298412
000120 ca 72 b6 bd 3d e0 06 bd e9 36 2a 3b 3c 61 e3 bd
       -0.08908613 -0.032928694 0.002597267 -0.1110253
000130 4a 9b 0f 3d b3 17 0a be ec c5 3e 3d 94 65 68 bd
       0.035060205 -0.13485603 0.04657547 -0.056737497
000140 b8 ba da bd ba 63 1c 3d af 99 80 3d 78 60 bd bd
       -0.10680145 0.038181044 0.06279313 -0.092469156
000150 9c a1 6f bc ed f6 82 bd 4b 8f 41 bd 40 d4 9a bd
       -0.014625933 -0.063947536 -0.047255795 -0.07560015
000160 09 8f d7 bb 6c 11 93 bb aa 51 ef 3c 4e 73 24 bd
       -0.0065783304 -0.004488161 0.029213745 -0.040149026
000170 de 29 86 3d 50 28 fc 3c fe 88 94 3d b9 7e e7 bc
       0.06550954 0.030780941 0.07252692 -0.028258668
000180 e1 a7 a2 bc 89 93 c0 bd e6 aa 0c 3d 0f 4c 69 bd
       -0.019855442 -0.0940314 0.03434267 -0.0569573
000190 ec 4b 94 bc 4e 92 3e bc ed a2 84 3b 05 31 cf 3d
       -0.018102609 -0.011631561 0.0040477426 0.101167716
0001a0 bf 84 dc 3d 6a ca 22 3d 0d c9 09 bd b1 43 6e 3d
       0.10767507 0.03974382 -0.033639003 0.058170024
0001b0 6d ea 91 bc 0d 12 b5 3d af 1b 97 3d 23 31 7f bd
       -0.017811978 0.088413335 0.07378327 -0.06230272
0001c0 a9 88 b4 bc 93 32 e6 bd 5d c3 09 be fb 05 2a bd
       -0.02203782 -0.11240115 -0.13453431 -0.04150961
0001d0 9f 8b e4 bd 24 9c 3c 3d 38 7f 1d bd ca f7 24 bd
       -0.11159443 0.046047345 -0.038451403 -0.040275373
0001e0 d4 3f ce 3d 6e 14 9b 3d 72 7a d8 3d 40 f9 ba 3d
       0.10070768 0.07572256 0.105702296 0.09129572
0001f0 b7 3a d8 3d 46 08 aa 3d c4 df 6d 3d 08 70 7c bd
       0.10558074 0.08302359 0.058074728 -0.06163028
000200 2e 40 44 3d a0 e4 26 bd de f4 85 3d 9d 9b ce 3d
       0.04791277 -0.040745378 0.06540845 0.10088275
000210 93 ec 1b bd 15 f0 00 3d 1b b2 40 bd db cd a2 bc
       -0.03806741 0.03147896 -0.047044855 -0.01987355
000220 be 70 b0 3d 43 a3 3b bd 8b d0 60 3d fb a9 85 3d
       0.08615254 -0.045809995 0.054886382 0.06526562
000230 dc fe 92 bc f9 a9 4c 3c 71 45 b9 3d 4e 7e e8 3c
       -0.017943792 0.0124916965 0.09046448 0.02838054
000240 84 c9 80 bd 4c a3 39 bd 52 d3 85 bd 77 2a 9d bd
       -0.06288436 -0.045321748 -0.06534447 -0.07674115
000250 1d 2a 6b bb b0 b9 94 3d 89 64 5a 3d b4 34 65 bd
       -0.0035883256 0.072619796 0.053318534 -0.055958465
000260 87 2b 0f 3d 21 1e 5d bb 56 24 19 bb 64 1e b9 3d
       0.03495362 -0.0033739882 -0.0023367605 0.09039
000270 9a 2d 80 3c ee 33 b9 3d d9 b8 c4 3d 05 b9 00 3e
       0.015646745 0.09043108 0.096055694 0.1257058
000280 42 ff 34 bd 4c 6c a0 3d dd 0d 39 bc 27 f6 b4 3d
       -0.044188745 0.07833156 -0.011294809 0.08836012
000290 e9 6f f7 3d d4 da d9 3d ba b9 1c 3e 59 d2 f5 bb
       0.12081892 0.10637441 0.15305224 -0.007501882
0002a0 84 39 c9 3d 61 04 f2 3d b4 27 be 3d ca 19 89 bb
       0.09825423 0.118172415 0.092849165 -0.0041839825
0002b0 dc ae e7 3d 5c ea 70 3d 33 86 46 3b 98 d9 e3 3d
       0.11312649 0.058817253 0.0030292391 0.11125487
0002c0 a7 3c 49 bc 46 08 f8 3d 75 5b fd 3d 3e 1b 5d bd
       -0.012282527 0.12110953 0.1237096 -0.05398106
0002d0 31 ff d7 bd fb 10 e2 bd c9 38 54 bd c4 32 32 be
       -0.10546721 -0.11038395 -0.051811967 -0.17402178
0002e0 25 1d a2 bd 0a a4 1a bd 2d 27 6d bb d3 67 02 3c
       -0.07915715 -0.037754096 -0.003618668 0.007959324
0002f0 d2 f7 be 3c 10 c6 da bd 74 0f 84 3d b4 84 1c 3d
       0.02331153 -0.10682309 0.0644826 0.038212493
000300 dd 98 e9 bd 44 cc e5 bd f3 9f fb bd 2a 4f bf 3c
       -0.114061095 -0.11220601 -0.12286367 0.023353178
000310 28 96 7f bd 45 18 32 bd 5b 76 1c bd ce 19 6d 3d
       -0.06239906 -0.043480176 -0.03819881 0.057885937
000320 38 0c 39 3c 73 0e 4d bd 1e 97 84 3d dd d0 a5 3d
       0.011294417 -0.050062608 0.06474136 0.08096478
000330 54 bc 5d bd 18 d1 57 3d b2 30 a4 3d 72 fe 3e 3b
       -0.05413468 0.05268964 0.080171004 0.002914336
000340 0f d4 30 3d af 6c 03 bd b1 7a 74 3d 5d 13 c4 3d
       0.043170985 -0.03208607 0.05968732 0.09574006
000350 e5 49 b7 3d 98 40 1f ba 03 00 a6 3d 3f 50 a0 3d
       0.08949641 -0.0006074994 0.08105471 0.07827806
000360 18 b2 e9 3d ed 8f 4d bb af 68 7b bc 14 47 c8 3d
       0.11410922 -0.0031366304 -0.015344783 0.09779182
000370 fc 79 01 bd ee 94 f9 bc aa ea 4a 3d 77 6c 60 3d
       -0.031610474 -0.030466523 0.0495402 0.05479094
000380 47 5d f0 3d 2c 3e 87 bc b4 f8 46 be 46 b5 2a bd
       0.11736541 -0.016509138 -0.1943081 -0.041676782
000390 9a e4 e9 bd 9d d2 2b be 8a 15 f2 bd f0 81 d9 bd
       -0.114205554 -0.16779561 -0.118205145 -0.10620487
0003a0 d7 e0 b5 bc 7f b5 77 bd c4 25 16 3c 27 dd 0e 3e
       -0.022201939 -0.060475823 0.009164277 0.1395155
0003b0 1e 47 05 3d 9d 8a 2d 3e 80 e0 10 3e a0 5f c1 3d
       0.032538526 0.16947408 0.1414814 0.09442067
0003c0 b4 dc b3 3d 27 e9 b0 3d 4b f6 24 3e 07 97 77 3d
       0.0878233 0.0863822 0.16109578 0.060446765
0003d0 20 01 dd 3d 2e 2d c5 bb 15 07 e7 3c d6 69 80 3d
       0.1079123 -0.0060173487 0.02820162 0.062701866
0003e0 3d 4a 00 3e 91 32 f8 3d 75 c3 12 3e 06 d2 0c bc
       0.1252832 0.1211902 0.14332373 -0.008594995
0003f0 6f c9 24 3e ad 4b 9b 3c 66 e2 b6 3d c4 04 5f 3d
       0.16092466 0.018956983 0.08929901 0.054447904

mapping.3.0.bias f4 [12]
000000 1c 09 03 be 7a 5b b5 bd fe 8a 37 be 32 f4 ab bd
       -0.12796444 -0.088553384 -0.17924115 -0.08396186
000010 67 8b 40 be 7c a2 da 3d bd da 81 3d 53 cd 72 3d
       -0.18803178 0.10675523 0.06340549 0.059277844
000020 89 06 96 bb 1c a5 c0 3d be 1f f0 3c 9c 3f 13 be
       -0.004578416 0.09406492 0.02931201 -0.14379734
